model/cifar10_model_uint8.tflite (tflite, 570872 bytes, 8 tensors)

sequential_2/conv2d_12/Conv2D i1 [32, 3, 3, 3]
000000 81 56 ff 08 be 4a 8e ee ff 5d 2f 43 4d 99 59 33
       -127 86 -1 8 -66 74 -114 -18 -1 93 47 67 77 -103 89 51
000010 c7 08 3e 3e dd fb 9b 99 6d f4 db 35 02 1d fe b1
       -57 8 62 62 -35 -5 -101 -103 109 -12 -37 53 2 29 -2 -79
000020 81 e6 98 b7 28 27 e1 25 6b 47 38 c4 f1 c1 49 f5
       -127 -26 -104 -73 40 39 -31 37 107 71 56 -60 -15 -63 73 -11
000030 b5 2a e8 bf c6 6b 27 e5 ec ea 38 d5 c6 20 b0 d8
       -75 42 -24 -65 -58 107 39 -27 -20 -22 56 -43 -58 32 -80 -40
000040 4e cf 57 7f 45 d0 d0 91 ec 37 c7 c7 4d 20 25 0e
       78 -49 87 127 69 -48 -48 -111 -20 55 -57 -57 77 32 37 14
000050 c0 e2 ec fa d8 bd df da d9 f6 bd 96 e2 eb ca fb
       -64 -30 -20 -6 -40 -67 -33 -38 -39 -10 -67 -106 -30 -21 -54 -5
000060 7a 7f 09 c4 27 a8 27 47 24 57 52 46 32 d2 ef 3f
       122 127 9 -60 39 -88 39 71 36 87 82 70 50 -46 -17 63
000070 e6 18 e9 03 ef fb fd 0f f0 ae 3b 0d de 3d b8 81
       -26 24 -23 3 -17 -5 -3 15 -16 -82 59 13 -34 61 -72 -127
000080 da fe af fe 25 a8 d7 2f f7 3d 81 9e f7 cc 2f 5d
       -38 -2 -81 -2 37 -88 -41 47 -9 61 -127 -98 -9 -52 47 93
000090 6e 5c db 32 08 38 c3 1a b4 d1 90 92 23 cb 15 3a
       110 92 -37 50 8 56 -61 26 -76 -47 -112 -110 35 -53 21 58
0000a0 51 10 e1 b5 1f ec 05 fa d7 9a ac 1d e1 3c 14 bc
       81 16 -31 -75 31 -20 5 -6 -41 -102 -84 29 -31 60 20 -68
0000b0 2f fc c8 c4 31 31 7f c2 33 7a e3 06 46 14 53 14
       47 -4 -56 -60 49 49 127 -62 51 122 -29 6 70 20 83 20
0000c0 e7 dc e5 09 c3 1a 0e 4c 28 4f 0d 2a c9 81 d7 ef
       -25 -36 -27 9 -61 26 14 76 40 79 13 42 -55 -127 -41 -17
0000d0 ed 01 f1 2d 06 f0 d0 da 1c d7 c0 55 55 59 7f 68
       -19 1 -15 45 6 -16 -48 -38 28 -41 -64 85 85 89 127 104
0000e0 6d cb e3 a4 e8 d3 38 bb b1 c2 b1 fd db 21 09 d8
       109 -53 -29 -92 -24 -45 56 -69 -79 -62 -79 -3 -37 33 9 -40
0000f0 dd cd fb e9 5e 7b 7f 21 f5 70 b0 f8 ae a2 41 c9
       -35 -51 -5 -23 94 123 127 33 -11 112 -80 -8 -82 -94 65 -55

sequential_2/conv2d_13/Conv2D i1 [32, 3, 3, 32]
000000 11 1f 19 20 2a 27 f6 ef 0e 19 0b 16 19 13 e6 fb
       17 31 25 32 42 39 -10 -17 14 25 11 22 25 19 -26 -5
000010 13 9f 05 dc eb 28 3c 25 e2 f1 dc ce cf f7 dc 01
       19 -97 5 -36 -21 40 60 37 -30 -15 -36 -50 -49 -9 -36 1
000020 f0 11 e5 1e 3e fb ed fa 00 f5 08 11 10 0f 16 14
       -16 17 -27 30 62 -5 -19 -6 0 -11 8 17 16 15 22 20
000030 0d c4 dd d6 d6 c3 03 ec e3 1b 37 1a fe f4 f3 00
       13 -60 -35 -42 -42 -61 3 -20 -29 27 55 26 -2 -12 -13 0
000040 10 03 15 f6 07 f0 0c 0d c3 f2 f0 26 07 db 0e ee
       16 3 21 -10 7 -16 12 13 -61 -14 -16 38 7 -37 14 -18
000050 e8 04 e3 bf 17 ce d7 fe 2d f4 de d9 ee 0b e8 32
       -24 4 -29 -65 23 -50 -41 -2 45 -12 -34 -39 -18 11 -24 50
000060 35 11 1b 0a 3f e6 e3 ea 24 16 33 f9 f1 f3 ff e0
       53 17 27 10 63 -26 -29 -22 36 22 51 -7 -15 -13 -1 -32
000070 25 d8 27 00 f8 7f d3 18 e6 d2 0e 02 02 fa 0b 0f
       37 -40 39 0 -8 127 -45 24 -26 -46 14 2 2 -6 11 15
000080 d6 f0 ed 12 28 2d fd f6 2f 30 01 e5 12 d3 f7 f8
       -42 -16 -19 18 40 45 -3 -10 47 48 1 -27 18 -45 -9 -8
000090 1e c1 26 db 08 0d 3c d1 ef 35 04 16 ea db ff 0f
       30 -63 38 -37 8 13 60 -47 -17 53 4 22 -22 -37 -1 15
0000a0 12 c9 f6 1d 0f 2d f1 f9 ef 3d d6 ed 02 fc ca df
       18 -55 -10 29 15 45 -15 -7 -17 61 -42 -19 2 -4 -54 -33
0000b0 07 fa e2 ce ec a2 1e c1 0c 17 07 07 30 0d f9 0c
       7 -6 -30 -50 -20 -94 30 -63 12 23 7 7 48 13 -7 12
0000c0 d9 0f fd 1a 13 1a e2 37 15 c2 02 1f 3c 09 11 05
       -39 15 -3 26 19 26 -30 55 21 -62 2 31 60 9 17 5
0000d0 eb ed e9 bd f9 45 bc e4 26 cf ea fa e8 10 d6 19
       -21 -19 -23 -67 -7 69 -68 -28 38 -49 -22 -6 -24 16 -42 25
0000e0 03 0d 08 f7 19 e0 fb 03 2e f1 f7 16 fe c7 f4 ca
       3 13 8 -9 25 -32 -5 3 46 -15 -9 22 -2 -57 -12 -54
0000f0 df ff 1f f5 f2 62 1b d9 24 f3 ef 1e 07 2a f7 d5
       -33 -1 31 -11 -14 98 27 -39 36 -13 -17 30 7 42 -9 -43

sequential_2/conv2d_14/Conv2D i1 [64, 3, 3, 32]
000000 11 16 3e ff 17 69 ea 08 be f4 1b 17 e5 2b 1b 16
       17 22 62 -1 23 105 -22 8 -66 -12 27 23 -27 43 27 22
000010 e6 07 05 b5 3e 6a 4c 3d f2 fd 09 ef 43 1d 06 d8
       -26 7 5 -75 62 106 76 61 -14 -3 9 -17 67 29 6 -40
000020 e2 3f 4e 0b f1 35 e4 1b a3 4f 04 29 f3 00 06 f2
       -30 63 78 11 -15 53 -28 27 -93 79 4 41 -13 0 6 -14
000030 19 39 04 df 1a 61 33 d7 40 e0 05 d5 4a 4f 14 ea
       25 57 4 -33 26 97 51 -41 64 -32 5 -43 74 79 20 -22
000040 ef e7 0a fa 33 37 f6 10 a6 1c f8 fd c5 f0 2a e8
       -17 -25 10 -6 51 55 -10 16 -90 28 -8 -3 -59 -16 42 -24
000050 ee 09 ff dd 01 71 0d c1 39 e6 1e f1 53 e8 23 de
       -18 9 -1 -35 1 113 13 -63 57 -26 30 -15 83 -24 35 -34
000060 e1 d4 e5 ef 01 5b dd d0 c5 ea d6 2f c9 1e 24 ea
       -31 -44 -27 -17 1 91 -35 -48 -59 -22 -42 47 -55 30 36 -22
000070 4a ed 07 9a f9 3a 2d dd f4 1c fe 13 20 22 a7 dd
       74 -19 7 -102 -7 58 45 -35 -12 28 -2 19 32 34 -89 -35
000080 e4 0d f5 fb ec 2f e7 0d cb e6 f0 26 ea 20 19 e6
       -28 13 -11 -5 -20 47 -25 13 -53 -26 -16 38 -22 32 25 -26
000090 1a 11 30 8c 1b 58 25 a0 16 2e 05 c2 3b 18 eb c4
       26 17 48 -116 27 88 37 -96 22 46 5 -62 59 24 -21 -60
0000a0 d9 e8 08 17 c5 02 f9 fc ad 12 10 1f ff 04 68 37
       -39 -24 8 23 -59 2 -7 -4 -83 18 16 31 -1 4 104 55
0000b0 36 44 00 ab 04 5a 19 ac 3f 2e 24 d7 29 0b 08 b3
       54 68 0 -85 4 90 25 -84 63 46 36 -41 41 11 8 -77
0000c0 b4 b4 f0 00 01 16 b7 1e c3 18 1e b1 ea 32 0c 27
       -76 -76 -16 0 1 22 -73 30 -61 24 30 -79 -22 50 12 39
0000d0 fc f1 fb 92 ea 7f e3 c9 ee 39 0a fa 32 2a f3 ea
       -4 -15 -5 -110 -22 127 -29 -55 -18 57 10 -6 50 42 -13 -22
0000e0 a0 bd f3 07 cb 37 dd 00 ed 0e 08 09 a7 19 11 0a
       -96 -67 -13 7 -53 55 -35 0 -19 14 8 9 -89 25 17 10
0000f0 f3 b6 0a bd d5 4b 3c b7 fb 43 e9 85 36 ea e0 dd
       -13 -74 10 -67 -43 75 60 -73 -5 67 -23 -123 54 -22 -32 -35

sequential_2/conv2d_15/Conv2D i1 [64, 3, 3, 64]
000000 09 ce e0 02 f3 eb c7 0c d0 d7 f2 e6 cf fa d7 02
       9 -50 -32 2 -13 -21 -57 12 -48 -41 -14 -26 -49 -6 -41 2
000010 04 06 f6 ff 05 2d cf 0b ee 0d de f8 cb ee 01 08
       4 6 -10 -1 5 45 -49 11 -18 13 -34 -8 -53 -18 1 8
000020 0d cd df 19 d0 28 34 ea fd 0f f6 17 d8 1d 3f 1c
       13 -51 -33 25 -48 40 52 -22 -3 15 -10 23 -40 29 63 28
000030 0c cb f7 ec 12 2b 26 06 d1 e9 f7 23 fb 19 31 02
       12 -53 -9 -20 18 43 38 6 -47 -23 -9 35 -5 25 49 2
000040 f2 d6 ec 3e f9 d0 12 19 f3 07 10 e9 13 29 fd 21
       -14 -42 -20 62 -7 -48 18 25 -13 7 16 -23 19 41 -3 33
000050 1b e1 0e ef f2 2a eb f0 1c f8 1c 10 f9 36 09 2c
       27 -31 14 -17 -14 42 -21 -16 28 -8 28 16 -7 54 9 44
000060 21 d7 eb fd fe 28 f5 0f 1f 09 16 1b 01 35 4e 03
       33 -41 -21 -3 -2 40 -11 15 31 9 22 27 1 53 78 3
000070 f6 e0 13 3c 2b 55 f0 20 e4 c7 1d 09 f6 10 22 ef
       -10 -32 19 60 43 85 -16 32 -28 -57 29 9 -10 16 34 -17
000080 f0 c7 f0 43 20 ac eb 2d ad e9 05 b8 06 18 0e 01
       -16 -57 -16 67 32 -84 -21 45 -83 -23 5 -72 6 24 14 1
000090 1f ce e9 f0 b9 42 21 19 f8 c8 18 ee e8 12 0f 34
       31 -50 -23 -16 -71 66 33 25 -8 -56 24 -18 -24 18 15 52
0000a0 f7 18 ed 03 da 30 ec 0f 0b 1c fb 06 f8 07 19 0b
       -9 24 -19 3 -38 48 -20 15 11 28 -5 6 -8 7 25 11
0000b0 e2 ca e3 31 3b 16 13 ea fc 06 19 27 06 2d 3c e4
       -30 -54 -29 49 59 22 19 -22 -4 6 25 39 6 45 60 -28
0000c0 e7 e8 f7 1f d3 de d8 e3 0a dc 0a 00 ec e1 df 16
       -25 -24 -9 31 -45 -34 -40 -29 10 -36 10 0 -20 -31 -33 22
0000d0 ea fc bc d5 f4 07 ed 94 d7 e2 f1 1d 96 24 01 e1
       -22 -4 -68 -43 -12 7 -19 -108 -41 -30 -15 29 -106 36 1 -31
0000e0 dc 05 e0 f5 d3 07 f9 f1 01 ef f1 e7 c7 ef 4a 0d
       -36 5 -32 -11 -45 7 -7 -15 1 -17 -15 -25 -57 -17 74 13
0000f0 e5 0e db f6 fd 36 11 09 f7 e1 ff f0 09 ee 2f 05
       -27 14 -37 -10 -3 54 17 9 -9 -31 -1 -16 9 -18 47 5

sequential_2/conv2d_16/Conv2D i1 [128, 3, 3, 64]
000000 f5 1c 10 f7 00 1b f5 06 1a 36 19 b5 22 28 08 04
       -11 28 16 -9 0 27 -11 6 26 54 25 -75 34 40 8 4
000010 04 db 11 f1 17 bb cc 13 17 d8 ec ed 17 bc ff d3
       4 -37 17 -15 23 -69 -52 19 23 -40 -20 -19 23 -68 -1 -45
000020 05 14 01 dd e3 fa fa e7 fb c9 e8 36 ba 33 ea 19
       5 20 1 -35 -29 -6 -6 -25 -5 -55 -24 54 -70 51 -22 25
000030 29 c7 12 fc ba 46 0d 1d 5d e9 c9 e1 30 07 0a 10
       41 -57 18 -4 -70 70 13 29 93 -23 -55 -31 48 7 10 16
000040 ce f1 0f 1f ec 3e 36 02 62 a1 2b e3 f2 ee da e2
       -50 -15 15 31 -20 62 54 2 98 -95 43 -29 -14 -18 -38 -30
000050 06 d7 0c f5 fc 05 f4 e7 ef dc 10 2c 2f b0 fc eb
       6 -41 12 -11 -4 5 -12 -25 -17 -36 16 44 47 -80 -4 -21
000060 d6 e2 0c f7 e2 d4 e6 f6 01 c6 f4 29 eb 30 b9 2b
       -42 -30 12 -9 -30 -44 -26 -10 1 -58 -12 41 -21 48 -71 43
000070 00 07 d1 d9 f5 2f 17 01 2b dc b9 e2 06 0c 0b 2e
       0 7 -47 -39 -11 47 23 1 43 -36 -71 -30 6 12 11 46
000080 98 e5 fa 30 e0 0c 30 db 30 a3 e7 f9 bf e6 bb f7
       -104 -27 -6 48 -32 12 48 -37 48 -93 -25 -7 -65 -26 -69 -9
000090 dd ec 0b 5d f1 16 09 d2 14 07 eb 02 49 aa cf c4
       -35 -20 11 93 -15 22 9 -46 20 7 -21 2 73 -86 -49 -60
0000a0 ca fd 33 33 c7 ec cf 12 00 8f ed 14 01 01 b9 05
       -54 -3 51 51 -57 -20 -49 18 0 -113 -19 20 1 1 -71 5
0000b0 15 f5 f7 0c 08 d1 e4 e3 cc 34 f1 f6 1d 24 23 3d
       21 -11 -9 12 8 -47 -28 -29 -52 52 -15 -10 29 36 35 61
0000c0 d4 25 ea 01 e3 21 e7 38 26 23 15 e4 11 b6 fd b6
       -44 37 -22 1 -29 33 -25 56 38 35 21 -28 17 -74 -3 -74
0000d0 e2 08 ef d7 26 f1 d5 ff fd ea de d8 2f bf c3 dd
       -30 8 -17 -41 38 -15 -43 -1 -3 -22 -34 -40 47 -65 -61 -35
0000e0 1e 0f 08 22 c5 e2 00 c2 fe bc cc 2b ae 09 2c 1a
       30 15 8 34 -59 -30 0 -62 -2 -68 -52 43 -82 9 44 26
0000f0 f3 dd 1e 14 e3 20 1c 49 2c e9 fa dd f1 c2 2a ed
       -13 -35 30 20 -29 32 28 73 44 -23 -6 -35 -15 -62 42 -19

sequential_2/conv2d_17/Conv2D i1 [128, 3, 3, 128]
000000 22 f7 0e 14 e1 3e 00 05 31 1f ed f5 fb ea 15 ea
       34 -9 14 20 -31 62 0 5 49 31 -19 -11 -5 -22 21 -22
000010 ca f6 fc cc 09 f0 1f 0c d7 f3 f1 f8 21 23 12 17
       -54 -10 -4 -52 9 -16 31 12 -41 -13 -15 -8 33 35 18 23
000020 d2 ff 2b 30 12 fc bb 04 e3 08 10 03 49 b0 13 e9
       -46 -1 43 48 18 -4 -69 4 -29 8 16 3 73 -80 19 -23
000030 02 1f ff 2b f3 e4 d9 dd d6 f1 f7 be fe e2 f4 45
       2 31 -1 43 -13 -28 -39 -35 -42 -15 -9 -66 -2 -30 -12 69
000040 09 21 19 ef ea 04 cf cd 20 ef d0 d4 be 0b d3 e9
       9 33 25 -17 -22 4 -49 -51 32 -17 -48 -44 -66 11 -45 -23
000050 01 1b d6 e3 c0 eb 0c d2 f6 03 f6 e2 f2 fe de 99
       1 27 -42 -29 -64 -21 12 -46 -10 3 -10 -30 -14 -2 -34 -103
000060 fa 08 c1 c6 35 ec fd ff 18 28 30 0c d6 f3 05 da
       -6 8 -63 -58 53 -20 -3 -1 24 40 48 12 -42 -13 5 -38
000070 d4 0e d2 e4 36 e7 d0 30 1d 41 1c 47 b7 2d 25 e5
       -44 14 -46 -28 54 -25 -48 48 29 65 28 71 -73 45 37 -27
000080 18 d0 03 f7 06 41 00 00 fe f8 1c eb 13 1c fd c2
       24 -48 3 -9 6 65 0 0 -2 -8 28 -21 19 28 -3 -62
000090 cf ee 39 df e3 d5 21 12 c9 ef 0a 11 02 0a fd 10
       -49 -18 57 -33 -29 -43 33 18 -55 -17 10 17 2 10 -3 16
0000a0 0a 16 07 22 05 f7 c4 0f f3 20 13 fc f7 cf 08 eb
       10 22 7 34 5 -9 -60 15 -13 32 19 -4 -9 -49 8 -21
0000b0 07 06 fd 15 f3 08 c9 f1 e2 f6 08 e5 36 01 c6 52
       7 6 -3 21 -13 8 -55 -15 -30 -10 8 -27 54 1 -58 82
0000c0 02 15 15 d6 1f 05 02 09 0f d4 b9 de c0 c4 d0 e8
       2 21 21 -42 31 5 2 9 15 -44 -71 -34 -64 -60 -48 -24
0000d0 d5 20 1c e6 fd fe 08 c2 cf f0 e3 01 0a 16 04 ba
       -43 32 28 -26 -3 -2 8 -62 -49 -16 -29 1 10 22 4 -70
0000e0 f0 02 be d3 ee ee 1a 03 40 1f 30 04 1d 06 18 08
       -16 2 -66 -45 -18 -18 26 3 64 31 48 4 29 6 24 8
0000f0 b7 30 fa ea 39 0f e8 0f 24 1b 00 08 d9 00 0a 10
       -73 48 -6 -22 57 15 -24 15 36 27 0 8 -39 0 10 16

sequential_2/batch_normalization_20/batchnorm/mul_1 i1 [128, 2048] scale=0.0003772956 zero_point=0
000000 0a fd ed e2 19 0c 36 e2 ed ea 21 e6 16 05 eb f0
       0.0037729559 -0.0011318868 -0.007168616 -0.011318868 0.00943239 0.0045275474 0.020373963 -0.011318868 -0.007168616 -0.008300503 0.012450755 -0.009809686 0.008300503 0.0018864779 -0.007923207 -0.0060367296
000010 ff 0a e0 e8 ff 01 09 f1 e7 e1 f1 0a fb 07 09 f9
       -0.0003772956 0.0037729559 -0.012073459 -0.009055095 -0.0003772956 0.0003772956 0.0033956603 -0.005659434 -0.00943239 -0.011696164 -0.005659434 0.0037729559 -0.0018864779 0.0026410692 0.0033956603 -0.0026410692
000020 f8 1d 0d ef e9 c6 df ec f0 ff d2 11 0b fc f5 ee
       -0.0030183648 0.0109415725 0.004904843 -0.006414025 -0.008677798 -0.021883145 -0.012450755 -0.0075459117 -0.0060367296 -0.0003772956 -0.017355597 0.006414025 0.0041502514 -0.0015091824 -0.0041502514 -0.0067913206
000030 03 cf 11 d2 fd f5 27 f6 1f ea ef cf fa 21 0c fc
       0.0011318868 -0.018487485 0.006414025 -0.017355597 -0.0011318868 -0.0041502514 0.014714528 -0.0037729559 0.011696164 -0.008300503 -0.006414025 -0.018487485 -0.0022637737 0.012450755 0.0045275474 -0.0015091824
000040 2b ce 19 d8 fe f8 fb 1c 02 dc 20 e3 04 0a dd f5
       0.01622371 -0.01886478 0.00943239 -0.015091823 -0.0007545912 -0.0030183648 -0.0018864779 0.010564277 0.0007545912 -0.013582641 0.012073459 -0.0109415725 0.0015091824 0.0037729559 -0.013205346 -0.0041502514
000050 18 de 27 f6 00 29 e5 f8 dc d9 13 fa fe 1c e9 11
       0.009055095 -0.01282805 0.014714528 -0.0037729559 0.0 0.01546912 -0.010186981 -0.0030183648 -0.013582641 -0.014714528 0.007168616 -0.0022637737 -0.0007545912 0.010564277 -0.008677798 0.006414025
000060 e2 fd d7 0c 03 fe e5 ef f4 ff f7 1e 29 1a 21 24
       -0.011318868 -0.0011318868 -0.01546912 0.0045275474 0.0011318868 -0.0007545912 -0.010186981 -0.006414025 -0.0045275474 -0.0003772956 -0.0033956603 0.011318868 0.01546912 0.009809686 0.012450755 0.013582641
000070 27 fc e5 ea f9 30 f6 0b 05 f7 cd df fd 31 d5 17
       0.014714528 -0.0015091824 -0.010186981 -0.008300503 -0.0026410692 0.01811019 -0.0037729559 0.0041502514 0.0018864779 -0.0033956603 -0.019242076 -0.012450755 -0.0011318868 0.018487485 -0.01622371 0.008677798
000080 ef 1e d9 0d 10 e1 0e c8 1b a0 dd 18 fa 14 ef 11
       -0.006414025 0.011318868 -0.014714528 0.004904843 0.0060367296 -0.011696164 0.0052821385 -0.021128554 0.010186981 -0.03622038 -0.013205346 0.009055095 -0.0022637737 0.0075459117 -0.006414025 0.006414025
000090 13 dd b3 0d 0a 29 f8 cf 19 07 c4 2b f7 09 f5 ef
       0.007168616 -0.013205346 -0.02905176 0.004904843 0.0037729559 0.01546912 -0.0030183648 -0.018487485 0.00943239 0.0026410692 -0.022637736 0.01622371 -0.0033956603 0.0033956603 -0.0041502514 -0.006414025
0000a0 f4 0e 24 0f f3 dd e6 f6 db 1d d1 ea e9 05 0a fe
       -0.0045275474 0.0052821385 0.013582641 0.005659434 -0.004904843 -0.013205346 -0.009809686 -0.0037729559 -0.013959937 0.0109415725 -0.017732892 -0.008300503 -0.008677798 0.0018864779 0.0037729559 -0.0007545912
0000b0 2f e0 ed 16 05 1c 1f ff 05 e1 0c fe da 21 f9 fc
       0.017732892 -0.012073459 -0.007168616 0.008300503 0.0018864779 0.010564277 0.011696164 -0.0003772956 0.0018864779 -0.011696164 0.0045275474 -0.0007545912 -0.014337232 0.012450755 -0.0026410692 -0.0015091824
0000c0 ff fa 11 0d 05 0e 0d fa 05 e7 1a f0 f8 fc 04 f1
       -0.0003772956 -0.0022637737 0.006414025 0.004904843 0.0018864779 0.0052821385 0.004904843 -0.0022637737 0.0018864779 -0.00943239 0.009809686 -0.0060367296 -0.0030183648 -0.0015091824 0.0015091824 -0.005659434
0000d0 23 eb 14 01 ff 13 e0 d2 01 f3 1d 1c 29 1b 06 28
       0.013205346 -0.007923207 0.0075459117 0.0003772956 -0.0003772956 0.007168616 -0.012073459 -0.017355597 0.0003772956 -0.004904843 0.0109415725 0.010564277 0.01546912 0.010186981 0.0022637737 0.015091823
0000e0 11 e1 c2 15 fb f8 f8 f7 13 20 e6 0a 33 fe 03 f5
       0.006414025 -0.011696164 -0.023392327 0.007923207 -0.0018864779 -0.0030183648 -0.0030183648 -0.0033956603 0.007168616 0.012073459 -0.009809686 0.0037729559 0.019242076 -0.0007545912 0.0011318868 -0.0041502514
0000f0 35 0b 01 ed e8 e1 d9 f8 fb 19 f8 f9 fd 0c 0b be
       0.019996667 0.0041502514 0.0003772956 -0.007168616 -0.009055095 -0.011696164 -0.014714528 -0.0030183648 -0.0018864779 0.00943239 -0.0030183648 -0.0026410692 -0.0011318868 0.0045275474 0.0041502514 -0.02490151

sequential_2/dense_5/MatMul i1 [10, 128] scale=0.003877823 zero_point=0
000000 0a 1d 1d d6 27 05 fc e3 e8 1f ed 0a e0 b5 23 e5
       0.03877823 0.112456866 0.112456866 -0.16286856 0.1512351 0.019389115 -0.015511292 -0.112456866 -0.09306775 0.12021251 -0.073678635 0.03877823 -0.124090336 -0.29083672 0.1357238 -0.10470122
000010 e9 af 0e 07 c2 10 14 23 26 0a 18 1c 28 0f 1d 1d
       -0.08918993 -0.31410366 0.054289524 0.027144762 -0.24042502 0.062045168 0.07755646 0.1357238 0.14735727 0.03877823 0.09306775 0.10857905 0.15511292 0.058167346 0.112456866 0.112456866
000020 eb e8 c1 12 e6 d9 b5 07 cd 0d e3 14 f9 e0 1c fa
       -0.08143428 -0.09306775 -0.24430285 0.06980082 -0.100823395 -0.1512351 -0.29083672 0.027144762 -0.19776897 0.050411697 -0.112456866 0.07755646 -0.027144762 -0.124090336 0.10857905 -0.023266938
000030 c2 ec 22 2a bf c0 0a c1 d5 d8 0a 15 25 18 26 ea
       -0.24042502 -0.07755646 0.13184598 0.16286856 -0.2520585 -0.24818067 0.03877823 -0.24430285 -0.1667464 -0.15511292 0.03877823 0.08143428 0.14347945 0.09306775 0.14735727 -0.085312106
000040 16 e2 1f fd 11 b6 1e 1f dd 15 19 e4 1b 1f e0 08
       0.085312106 -0.11633469 0.12021251 -0.011633469 0.06592299 -0.2869589 0.11633469 0.12021251 -0.1357238 0.08143428 0.09694558 -0.10857905 0.10470122 0.12021251 -0.124090336 0.031022584
000050 2a c9 29 d8 ca db c3 0e 28 1f f3 b7 d2 25 b6 11
       0.16286856 -0.21328026 0.15899074 -0.15511292 -0.20940244 -0.14347945 -0.2365472 0.054289524 0.15511292 0.12021251 -0.050411697 -0.28308108 -0.17837986 0.14347945 -0.2869589 0.06592299
000060 e8 c6 d4 e4 c4 18 dd 0a 2d f3 27 10 1e 27 f0 df
       -0.09306775 -0.22491373 -0.17062421 -0.10857905 -0.23266938 0.09306775 -0.1357238 0.03877823 0.17450203 -0.050411697 0.1512351 0.062045168 0.11633469 0.1512351 -0.062045168 -0.12796816
000070 cf c4 c5 cf d7 c6 29 23 2d 2f e8 f5 28 ce 2c fa
       -0.19001333 -0.23266938 -0.22879156 -0.19001333 -0.15899074 -0.22491373 0.15899074 0.1357238 0.17450203 0.18225768 -0.09306775 -0.042656053 0.15511292 -0.19389115 0.17062421 -0.023266938
000080 de 1a f8 eb e0 2d 23 ab ee c3 27 af a4 c5 df d5
       -0.13184598 0.100823395 -0.031022584 -0.08143428 -0.124090336 0.17450203 0.1357238 -0.32961497 -0.06980082 -0.2365472 0.1512351 -0.31410366 -0.35675973 -0.22879156 -0.12796816 -0.1667464
000090 ac d4 12 1b c0 c8 cc 1f 32 e7 c8 20 c4 1f 2c 1a
       -0.32573712 -0.17062421 0.06980082 0.10470122 -0.24818067 -0.2171581 -0.20164679 0.12021251 0.19389115 -0.09694558 -0.2171581 0.124090336 -0.23266938 0.12021251 0.17062421 0.100823395
0000a0 ed ce 0e ce bc 0b 1e 15 17 be e6 10 12 3e 1b de
       -0.073678635 -0.19389115 0.054289524 -0.19389115 -0.26369196 0.042656053 0.11633469 0.08143428 0.08918993 -0.25593632 -0.100823395 0.062045168 0.06980082 0.24042502 0.10470122 -0.13184598
0000b0 11 a7 32 f3 f5 dd c0 d7 1e ab 26 0f c9 18 eb cf
       0.06592299 -0.34512624 0.19389115 -0.050411697 -0.042656053 -0.1357238 -0.24818067 -0.15899074 0.11633469 -0.32961497 0.14735727 0.058167346 -0.21328026 0.09306775 -0.08143428 -0.19001333
0000c0 21 18 d1 98 98 09 2c c8 94 ec f3 2c 2b cb 31 c2
       0.12796816 0.09306775 -0.18225768 -0.40329358 -0.40329358 0.03490041 0.17062421 -0.2171581 -0.41880488 -0.07755646 -0.050411697 0.17062421 0.1667464 -0.20552462 0.19001333 -0.24042502
0000d0 33 db bb 2a fd 05 30 15 35 1d cb 9c cd 0a ed ce
       0.19776897 -0.14347945 -0.26756978 0.16286856 -0.011633469 0.019389115 0.1861355 0.08143428 0.20552462 0.112456866 -0.20552462 -0.3877823 -0.19776897 0.03877823 -0.073678635 -0.19389115
0000e0 08 30 2d 2b c6 cc c5 f0 d2 3b 29 0b 25 cc a4 14
       0.031022584 0.1861355 0.17450203 0.1667464 -0.22491373 -0.20164679 -0.22879156 -0.062045168 -0.17837986 0.22879156 0.15899074 0.042656053 0.14347945 -0.20164679 -0.35675973 0.07755646
0000f0 b2 b1 b4 1f 3a d2 b1 d1 14 b8 a8 e8 24 29 f8 0a
       -0.3024702 -0.30634803 -0.29471454 0.12021251 0.22491373 -0.17837986 -0.30634803 -0.18225768 0.07755646 -0.27920327 -0.34124842 -0.09306775 0.13960163 0.15899074 -0.031022584 0.03877823
