model/cifar10_model_uint8.tflite (tflite, 570568 bytes, 8 tensors)

sequential/conv2d/Conv2D i1 [32, 3, 3, 3]
000000 e4 4d d4 b1 ce ca 3e 4b 00 c3 04 b9 d5 06 89 35
       -28 77 -44 -79 -50 -54 62 75 0 -61 4 -71 -43 6 -119 53
000010 48 7f 26 5a fb 33 c4 fe e0 c2 26 00 ff c4 7f 1f
       72 127 38 90 -5 51 -60 -2 -32 -62 38 0 -1 -60 127 31
000020 ee 58 19 10 20 10 f5 43 fb 24 17 11 1d fd b3 11
       -18 88 25 16 32 16 -11 67 -5 36 23 17 29 -3 -77 17
000030 db fc ea b9 f9 da d7 de 17 51 db 22 77 f2 ad e4
       -37 -4 -22 -71 -7 -38 -41 -34 23 81 -37 34 119 -14 -83 -28
000040 31 65 1c f6 b8 22 2b bc 81 ef 55 17 52 3d b1 c5
       49 101 28 -10 -72 34 43 -68 -127 -17 85 23 82 61 -79 -59
000050 93 1a f2 e3 09 e0 26 0d f1 11 18 f5 0b 01 e2 11
       -109 26 -14 -29 9 -32 38 13 -15 17 24 -11 11 1 -30 17
000060 df 0b 0b 1b d4 df c4 81 e4 ef f3 19 c2 a8 06 0b
       -33 11 11 27 -44 -33 -60 -127 -28 -17 -13 25 -62 -88 6 11
000070 ec 5c d1 fe 10 c4 96 81 2c f8 a5 0e 14 48 e9 3c
       -20 92 -47 -2 16 -60 -106 -127 44 -8 -91 14 20 72 -23 60
000080 02 60 15 aa 3e 7c 2b 26 26 62 0d 47 7f 6a 5f 07
       2 96 21 -86 62 124 43 38 38 98 13 71 127 106 95 7
000090 bc d8 de d3 91 ab 2a df 62 14 1e bc d8 b6 a7 c0
       -68 -40 -34 -45 -111 -85 42 -33 98 20 30 -68 -40 -74 -89 -64
0000a0 fa bc 83 96 c2 f5 ee 31 f0 5f 18 a0 52 ac 3b 20
       -6 -68 -125 -106 -62 -11 -18 49 -16 95 24 -96 82 -84 59 32
0000b0 f3 19 b9 82 7e 4e 7f 25 cf 0d bf 04 e6 ea e7 07
       -13 25 -71 -126 126 78 127 37 -49 13 -65 4 -26 -22 -25 7
0000c0 dc f9 30 df 31 2c 4f d9 4c 46 d4 f2 eb 82 ac 36
       -36 -7 48 -33 49 44 79 -39 76 70 -44 -14 -21 -126 -84 54
0000d0 cf f6 7f fd 48 f2 9d f9 cb f2 3d b6 be d8 ef fa
       -49 -10 127 -3 72 -14 -99 -7 -53 -14 61 -74 -66 -40 -17 -6
0000e0 39 0a ce 7f fc 28 67 22 46 5c dd 0d 3e b6 a4 ce
       57 10 -50 127 -4 40 103 34 70 92 -35 13 62 -74 -92 -50
0000f0 e5 f8 f3 96 ea a4 39 b0 39 76 18 53 e4 19 f4 2a
       -27 -8 -13 -106 -22 -92 57 -80 57 118 24 83 -28 25 -12 42

sequential/conv2d_1/Conv2D i1 [32, 3, 3, 32]
000000 10 0e 03 ec a4 0f 54 1d ea fd f2 36 27 3f f0 fd
       16 14 3 -20 -92 15 84 29 -22 -3 -14 54 39 63 -16 -3
000010 ee 25 8d fd dc 17 1f f1 4d e9 3a fd ea 9e 10 e0
       -18 37 -115 -3 -36 23 31 -15 77 -23 58 -3 -22 -98 16 -32
000020 e3 20 0c 54 f6 e8 fe 30 04 19 d5 ff 1b 01 fe 19
       -29 32 12 84 -10 -24 -2 48 4 25 -43 -1 27 1 -2 25
000030 fb 0d bf ef 48 14 ff e7 df 08 0a bd 13 10 ee 39
       -5 13 -65 -17 72 20 -1 -25 -33 8 10 -67 19 16 -18 57
000040 fb 35 d7 54 fe fb be 99 0c 9f 21 28 20 d6 31 19
       -5 53 -41 84 -2 -5 -66 -103 12 -97 33 40 32 -42 49 25
000050 f1 f5 31 2e 03 26 56 0d 0d 11 ee fb 14 5e 38 01
       -15 -11 49 46 3 38 86 13 13 17 -18 -5 20 94 56 1
000060 ef 07 11 43 9b 17 fc 3e e1 1b eb 23 fe 37 00 1a
       -17 7 17 67 -101 23 -4 62 -31 27 -21 35 -2 55 0 26
000070 f3 29 9a 08 e9 fc 02 ec 32 f3 48 d2 e9 ba d1 ec
       -13 41 -102 8 -23 -4 2 -20 50 -13 72 -46 -23 -70 -47 -20
000080 1c 03 08 33 0b d9 d1 14 fe 01 c4 f0 26 eb d3 37
       28 3 8 51 11 -39 -47 20 -2 1 -60 -16 38 -21 -45 55
000090 dd 01 1a 14 37 22 19 ea 08 da 02 e7 fe 37 d2 08
       -35 1 26 20 55 34 25 -22 8 -38 2 -25 -2 55 -46 8
0000a0 fd 09 e5 10 0c c6 d9 be fb 8c 5c 0a 23 b1 2b fe
       -3 9 -27 16 12 -58 -39 -66 -5 -116 92 10 35 -79 43 -2
0000b0 11 d0 77 e3 db f2 2c 29 fc 08 ac 27 17 32 0d e6
       17 -48 119 -29 -37 -14 44 41 -4 8 -84 39 23 50 13 -26
0000c0 ff d9 0c 2e e6 b2 fa 47 ee 03 d3 07 fb 20 16 3f
       -1 -39 12 46 -26 -78 -6 71 -18 3 -45 7 -5 32 22 63
0000d0 22 27 e1 12 ed ff d9 d7 0d ef 1c 05 06 cd ef e8
       34 39 -31 18 -19 -1 -39 -41 13 -17 28 5 6 -51 -17 -24
0000e0 2a 24 cd 45 13 c0 d4 e6 db c0 df d6 df d6 b7 ca
       42 36 -51 69 19 -64 -44 -26 -37 -64 -33 -42 -33 -42 -73 -54
0000f0 ec d3 39 05 46 10 e6 0c d1 e5 81 03 15 20 f7 dc
       -20 -45 57 5 70 16 -26 12 -47 -27 -127 3 21 32 -9 -36

sequential/conv2d_2/Conv2D i1 [64, 3, 3, 32]
000000 16 09 36 c8 25 f3 f7 f6 fd c8 1a eb 0c 33 e8 2d
       22 9 54 -56 37 -13 -9 -10 -3 -56 26 -21 12 51 -24 45
000010 d6 10 de 33 0d 2b cd 08 13 05 1a d7 f5 d9 65 d0
       -42 16 -34 51 13 43 -51 8 19 5 26 -41 -11 -39 101 -48
000020 23 dd 13 f0 04 d0 04 04 58 1e 15 e1 dc f9 cf 31
       35 -35 19 -16 4 -48 4 4 88 30 21 -31 -36 -7 -49 49
000030 dd 16 dd 16 22 15 2c 1e fd 10 d4 cb 00 c6 0a b0
       -35 22 -35 22 34 21 44 30 -3 16 -44 -53 0 -58 10 -80
000040 63 24 38 b8 f1 e5 3c 0a 46 26 3e ca 01 fb d7 30
       99 36 56 -72 -15 -27 60 10 70 38 62 -54 1 -5 -41 48
000050 00 ec f0 4d 3a 26 fc 37 f1 41 f0 bc a9 e2 fb d8
       0 -20 -16 77 58 38 -4 55 -15 65 -16 -68 -87 -30 -5 -40
000060 2a fb fd d1 29 d5 ea 03 06 f8 e0 eb 14 3b f3 15
       42 -5 -3 -47 41 -43 -22 3 6 -8 -32 -21 20 59 -13 21
000070 01 28 b1 22 0b 1f d6 16 1f 15 02 0c 00 18 08 b9
       1 40 -79 34 11 31 -42 22 31 21 2 12 0 24 8 -71
000080 10 eb 12 db 22 9e ff f6 4d f7 e6 b1 df 0f dd ee
       16 -21 18 -37 34 -98 -1 -10 77 -9 -26 -79 -33 15 -35 -18
000090 b0 00 cd 0b 1e 0c da 09 03 d5 b0 09 fa 07 f0 81
       -80 0 -51 11 30 12 -38 9 3 -43 -80 9 -6 7 -16 -127
0000a0 2d 22 57 a4 2e 90 0c f2 54 fc 35 c3 ef e8 ef cf
       45 34 87 -92 46 -112 12 -14 84 -4 53 -61 -17 -24 -17 -49
0000b0 f3 13 ec 74 1e 3d f3 36 06 fb ed ea 0e f4 09 ee
       -13 19 -20 116 30 61 -13 54 6 -5 -19 -22 14 -12 9 -18
0000c0 3e db 03 f0 31 ea dd 0f 12 cb f2 c7 13 16 e7 13
       62 -37 3 -16 49 -22 -35 15 18 -53 -14 -57 19 22 -25 19
0000d0 ee 54 c6 4e 13 0f cc 14 2b 16 d8 56 03 f5 1d cd
       -18 84 -58 78 19 15 -52 20 43 22 -40 86 3 -11 29 -51
0000e0 2f d3 2a da f9 d5 08 f7 33 ff f2 da 0d fe d4 1b
       47 -45 42 -38 -7 -43 8 -9 51 -1 -14 -38 13 -2 -44 27
0000f0 09 77 c0 18 fe f1 e0 1e 09 fd b5 14 f7 1f 24 ba
       9 119 -64 24 -2 -15 -32 30 9 -3 -75 20 -9 31 36 -70

sequential/conv2d_3/Conv2D i1 [64, 3, 3, 64]
000000 fe d9 35 df ba 01 1a e0 23 ef 10 2c dd f1 6b d2
       -2 -39 53 -33 -70 1 26 -32 35 -17 16 44 -35 -15 107 -46
000010 bf 30 e1 08 e5 c1 e5 e4 17 f0 a9 fa 25 df e9 50
       -65 48 -31 8 -27 -63 -27 -28 23 -16 -87 -6 37 -33 -23 80
000020 15 f8 13 ed b0 f5 dd fb d0 54 08 12 19 17 43 fd
       21 -8 19 -19 -80 -11 -35 -5 -48 84 8 18 25 23 67 -3
000030 fb 01 46 fd bf e4 26 bc 18 26 b4 dd c6 d9 2f 1e
       -5 1 70 -3 -65 -28 38 -68 24 38 -76 -35 -58 -39 47 30
000040 f9 b2 1e eb 29 cc 18 ee 24 33 28 25 d6 11 4c e9
       -7 -78 30 -21 41 -52 24 -18 36 51 40 37 -42 17 76 -23
000050 bc 12 0b fe df f1 f7 a9 fe 1a fd d2 fc 0c cb 21
       -68 18 11 -2 -33 -15 -9 -87 -2 26 -3 -46 -4 12 -53 33
000060 de eb 49 f9 de fb e0 d6 e6 47 1e 21 dc 14 58 05
       -34 -21 73 -7 -34 -5 -32 -42 -26 71 30 33 -36 20 88 5
000070 10 12 2a 3e d5 08 06 bf f1 00 cb bc eb ff 0f 14
       16 18 42 62 -43 8 6 -65 -15 0 -53 -68 -21 -1 15 20
000080 cd cb ef eb d2 1c ee fd 17 42 00 fa eb 00 03 bd
       -51 -53 -17 -21 -46 28 -18 -3 23 66 0 -6 -21 0 3 -67
000090 ca aa d3 d6 95 f3 da bf 15 0d d1 e1 d7 16 d6 27
       -54 -86 -45 -42 -107 -13 -38 -65 21 13 -47 -31 -41 22 -42 39
0000a0 f8 d2 26 f3 c8 f3 b5 c8 cd 5c 48 e8 ee 0c 2c 17
       -8 -46 38 -13 -56 -13 -75 -56 -51 92 72 -24 -18 12 44 23
0000b0 45 0d 32 f2 c4 b9 1b b1 d8 0d da c8 e5 e9 e8 22
       69 13 50 -14 -60 -71 27 -79 -40 13 -38 -56 -27 -23 -24 34
0000c0 e9 ea dc e7 e1 3a 1f eb dc 2c 0e 10 fb ac 6a f6
       -23 -22 -36 -25 -31 58 31 -21 -36 44 14 16 -5 -84 106 -10
0000d0 c3 48 e1 36 d5 62 0c 05 42 16 fe c1 19 01 f7 ec
       -61 72 -31 54 -43 98 12 5 66 22 -2 -63 25 1 -9 -20
0000e0 09 09 51 d9 d6 d3 b7 f5 c8 37 1c 2a fc 50 06 41
       9 9 81 -39 -42 -45 -73 -11 -56 55 28 42 -4 80 6 65
0000f0 31 fc 3c 27 0c d4 e0 cc f9 00 c6 e5 eb 07 28 12
       49 -4 60 39 12 -44 -32 -52 -7 0 -58 -27 -21 7 40 18

sequential/conv2d_4/Conv2D i1 [128, 3, 3, 64]
000000 21 ea f0 45 17 26 13 21 0e 23 d1 df d2 f7 38 f8
       33 -22 -16 69 23 38 19 33 14 35 -47 -33 -46 -9 56 -8
000010 fc e4 35 29 0a f4 06 15 1a e2 07 eb 10 e5 14 ed
       -4 -28 53 41 10 -12 6 21 26 -30 7 -21 16 -27 20 -19
000020 c9 22 e9 e6 ea 47 01 fc 12 81 f3 0e 04 23 ec 1a
       -55 34 -23 -26 -22 71 1 -4 18 -127 -13 14 4 35 -20 26
000030 e9 e5 db e6 a9 d7 1d f7 d4 d2 06 e5 02 09 17 9f
       -23 -27 -37 -26 -87 -41 29 -9 -44 -46 6 -27 2 9 23 -97
000040 3c 08 2d 2a 38 02 fa 21 f9 11 25 0c ee 28 14 4b
       60 8 45 42 56 2 -6 33 -7 17 37 12 -18 40 20 75
000050 03 1b 13 f2 15 16 30 f3 22 19 10 1c 21 fc ff 2c
       3 27 19 -14 21 22 48 -13 34 25 16 28 33 -4 -1 44
000060 d6 0b ef c0 ec eb 08 05 19 cc 0d 18 20 fd ff 0f
       -42 11 -17 -64 -20 -21 8 5 25 -52 13 24 32 -3 -1 15
000070 20 20 14 01 ec 1b 06 1d f8 fa 16 ff 18 d0 18 f8
       32 32 20 1 -20 27 6 29 -8 -6 22 -1 24 -48 24 -8
000080 fb f6 3f e8 11 c2 de 35 f8 df 0f f1 c4 21 e2 f7
       -5 -10 63 -24 17 -62 -34 53 -8 -33 15 -15 -60 33 -30 -9
000090 c1 11 c7 e2 4a 39 15 f7 17 05 26 c6 2c e7 18 1e
       -63 17 -57 -30 74 57 21 -9 23 5 38 -58 44 -25 24 30
0000a0 f2 12 1d f3 0b b2 f9 17 15 e7 1a 1d e8 c4 21 bc
       -14 18 29 -13 11 -78 -7 23 21 -25 26 29 -24 -60 33 -68
0000b0 3e 1f fa 30 03 fa c4 10 fd c4 bd 31 fa 1c 2b 04
       62 31 -6 48 3 -6 -60 16 -3 -60 -67 49 -6 28 43 4
0000c0 02 09 f1 f7 1c 16 f6 f9 da 0b ed e0 f1 08 da 10
       2 9 -15 -9 28 22 -10 -7 -38 11 -19 -32 -15 8 -38 16
0000d0 16 29 ad e5 20 fd e0 13 06 08 2d f6 2a e8 db ce
       22 41 -83 -27 32 -3 -32 19 6 8 45 -10 42 -24 -37 -50
0000e0 d5 e1 ed e0 1e fb 1c 07 f4 90 dc f7 fd 19 fd 16
       -43 -31 -19 -32 30 -5 28 7 -12 -112 -36 -9 -3 25 -3 22
0000f0 e5 e4 0b d5 1b ea 10 15 0d d7 da e8 13 08 23 8b
       -27 -28 11 -43 27 -22 16 21 13 -41 -38 -24 19 8 35 -117

sequential/conv2d_5/Conv2D i1 [128, 3, 3, 128]
000000 dd f9 cc 04 4d 10 2a 11 3c 42 d7 e4 ef 1d 59 0e
       -35 -7 -52 4 77 16 42 17 60 66 -41 -28 -17 29 89 14
000010 e1 15 07 38 e4 ac 32 ed e7 48 36 fd 15 08 e6 2c
       -31 21 7 56 -28 -84 50 -19 -25 72 54 -3 21 8 -26 44
000020 3e c3 06 d8 ce 30 24 0c 06 e8 e7 a2 f6 38 fb b6
       62 -61 6 -40 -50 48 36 12 6 -24 -25 -94 -10 56 -5 -74
000030 24 ea 14 cd ea d3 fa ff e0 20 3e 0d 0e 0c c8 25
       36 -22 20 -51 -22 -45 -6 -1 -32 32 62 13 14 12 -56 37
000040 07 d8 d4 e5 f1 ce 0b ed e7 28 04 de 38 42 fb 16
       7 -40 -44 -27 -15 -50 11 -19 -25 40 4 -34 56 66 -5 22
000050 f6 0b df df 5a 0b fe 30 06 da ea ed cd f4 bc c7
       -10 11 -33 -33 90 11 -2 48 6 -38 -22 -19 -51 -12 -68 -57
000060 fe 46 0f 0c e7 06 e2 bd 13 fc 20 f1 20 42 04 0f
       -2 70 15 12 -25 6 -30 -67 19 -4 32 -15 32 66 4 15
000070 26 19 26 0d ff ed 14 f2 38 1d 28 e4 df fe e3 d3
       38 25 38 13 -1 -19 20 -14 56 29 40 -28 -33 -2 -29 -45
000080 d5 e4 07 08 3b 10 0e c8 f8 06 d0 ea f4 fa 27 cf
       -43 -28 7 8 59 16 14 -56 -8 6 -48 -22 -12 -6 39 -49
000090 0b e5 c3 02 1b d0 14 08 15 fa 0a 2d e3 f8 ec 01
       11 -27 -61 2 27 -48 20 8 21 -6 10 45 -29 -8 -20 1
0000a0 d6 f0 e7 e6 e2 2a da 0b d8 d2 a9 c6 e6 27 ff c2
       -42 -16 -25 -26 -30 42 -38 11 -40 -46 -87 -58 -26 39 -1 -62
0000b0 0e 1e f8 f4 dd d5 f0 0e f4 06 13 dc ae 42 f7 d8
       14 30 -8 -12 -35 -43 -16 14 -12 6 19 -36 -82 66 -9 -40
0000c0 e8 14 0b 29 5e 10 38 ac ea fc 09 ea 0d 1e 0c f4
       -24 20 11 41 94 16 56 -84 -22 -4 9 -22 13 30 12 -12
0000d0 a9 04 d7 d7 2e 17 d7 1c d8 eb d3 f5 00 d1 fe d3
       -87 4 -41 -41 46 23 -41 28 -40 -21 -45 -11 0 -47 -2 -45
0000e0 06 d2 09 d8 07 00 ea fc 15 08 00 ee 10 4a 1a d1
       6 -46 9 -40 7 0 -22 -4 21 8 0 -18 16 74 26 -47
0000f0 1d 24 ef 21 e8 d4 03 14 22 f7 24 e7 bf fc 15 ca
       29 36 -17 33 -24 -44 3 20 34 -9 36 -25 -65 -4 21 -54

sequential/batch_normalization_6/batchnorm/mul_1 i1 [128, 2048] scale=0.0003433823 zero_point=0
000000 20 05 e4 f1 f6 0e 3e e6 fa 11 0b ea 10 f7 11 e6
       0.010988234 0.0017169116 -0.009614704 -0.0051507344 -0.0034338231 0.004807352 0.021289703 -0.008927939 -0.0020602937 0.005837499 0.0037772052 -0.0075544105 0.005494117 -0.0030904408 0.005837499 -0.008927939
000010 e8 04 0e f8 dd fc f5 06 ef 16 e7 fa eb ec 13 17
       -0.008241175 0.0013735292 0.004807352 -0.0027470584 -0.012018381 -0.0013735292 -0.0037772052 0.0020602937 -0.005837499 0.0075544105 -0.008584557 -0.0020602937 -0.007211028 -0.0068676462 0.006524264 0.007897793
000020 db 05 fd f3 f2 e8 fe 1d f0 de f0 19 e2 e2 fd 34
       -0.012705145 0.0017169116 -0.0010301468 -0.0044639697 -0.004807352 -0.008241175 -0.0006867646 0.009958087 -0.005494117 -0.011674998 -0.005494117 0.008584557 -0.010301469 -0.010301469 -0.0010301468 0.017855879
000030 fa ea 03 e4 f8 f4 21 fa d8 05 11 44 f9 0c 1a 22
       -0.0020602937 -0.0075544105 0.0010301468 -0.009614704 -0.0027470584 -0.0041205874 0.011331616 -0.0020602937 -0.0137352925 0.0017169116 0.005837499 0.023349997 -0.002403676 0.0041205874 0.008927939 0.011674998
000040 e8 f6 1e 2b f7 f9 dc d8 12 f4 f5 e5 30 47 24 05
       -0.008241175 -0.0034338231 0.010301469 0.014765439 -0.0030904408 -0.002403676 -0.012361763 -0.0137352925 0.0061808815 -0.0041205874 -0.0037772052 -0.009271322 0.01648235 0.024380144 0.012361763 0.0017169116
000050 d8 18 fb 14 11 fc ee 13 11 06 01 29 f2 13 e0 d5
       -0.0137352925 0.008241175 -0.0017169116 0.0068676462 0.005837499 -0.0013735292 -0.0061808815 0.006524264 0.005837499 0.0020602937 0.0003433823 0.014078674 -0.004807352 0.006524264 -0.010988234 -0.014765439
000060 f9 02 fb f3 fe 05 f8 ec 05 e2 0b 21 e2 0a ec 13
       -0.002403676 0.0006867646 -0.0017169116 -0.0044639697 -0.0006867646 0.0017169116 -0.0027470584 -0.0068676462 0.0017169116 -0.010301469 0.0037772052 0.011331616 -0.010301469 0.0034338231 -0.0068676462 0.006524264
000070 ff 00 ee fe 2a 13 f7 e1 0d fa d5 06 ed 1d 05 d0
       -0.0003433823 0.0 -0.0061808815 -0.0006867646 0.014422056 0.006524264 -0.0030904408 -0.010644851 0.0044639697 -0.0020602937 -0.014765439 0.0020602937 -0.006524264 0.009958087 0.0017169116 -0.01648235
000080 2a 29 ee ca e2 03 08 28 cc f6 00 ec f5 ca e3 04
       0.014422056 0.014078674 -0.0061808815 -0.018542644 -0.010301469 0.0010301468 0.0027470584 0.0137352925 -0.017855879 -0.0034338231 0.0 -0.0068676462 -0.0037772052 -0.018542644 -0.009958087 0.0013735292
000090 f1 28 ea 2e 04 ff ff ee ff 23 f9 f1 07 fa 0c 16
       -0.0051507344 0.0137352925 -0.0075544105 0.015795587 0.0013735292 -0.0003433823 -0.0003433823 -0.0061808815 -0.0003433823 0.012018381 -0.002403676 -0.0051507344 0.002403676 -0.0020602937 0.0041205874 0.0075544105
0000a0 fe 0c e8 cb 0c de 0f 1c 0a e1 12 22 d6 e7 c7 09
       -0.0006867646 0.0041205874 -0.008241175 -0.018199261 0.0041205874 -0.011674998 0.0051507344 0.009614704 0.0034338231 -0.010644851 0.0061808815 0.011674998 -0.014422056 -0.008584557 -0.01957279 0.0030904408
0000b0 fc df df 0f 05 e5 30 14 fb f2 00 12 01 0a e1 0b
       -0.0013735292 -0.011331616 -0.011331616 0.0051507344 0.0017169116 -0.009271322 0.01648235 0.0068676462 -0.0017169116 -0.004807352 0.0 0.0061808815 0.0003433823 0.0034338231 -0.010644851 0.0037772052
0000c0 f7 17 14 21 1a 00 fd 08 2a fe 4a 2a e7 23 08 05
       -0.0030904408 0.007897793 0.0068676462 0.011331616 0.008927939 0.0 -0.0010301468 0.0027470584 0.014422056 -0.0006867646 0.02541029 0.014422056 -0.008584557 0.012018381 0.0027470584 0.0017169116
0000d0 01 ea fb 1d 20 1a 25 e5 ed 05 fc f1 37 f1 f3 e4
       0.0003433823 -0.0075544105 -0.0017169116 0.009958087 0.010988234 0.008927939 0.012705145 -0.009271322 -0.006524264 0.0017169116 -0.0013735292 -0.0051507344 0.018886026 -0.0051507344 -0.0044639697 -0.009614704
0000e0 12 38 15 f3 0a 10 fb de 18 fd e1 19 2f 1c f0 e2
       0.0061808815 0.019229408 0.007211028 -0.0044639697 0.0034338231 0.005494117 -0.0017169116 -0.011674998 0.008241175 -0.0010301468 -0.010644851 0.008584557 0.016138969 0.009614704 -0.005494117 -0.010301469
0000f0 26 07 f7 09 f4 1b de cc ca ce 0b f3 01 d6 1d 2a
       0.013048528 0.002403676 -0.0030904408 0.0030904408 -0.0041205874 0.009271322 -0.011674998 -0.017855879 -0.018542644 -0.017169114 0.0037772052 -0.0044639697 0.0003433823 -0.014422056 0.009958087 0.014422056

sequential/dense_1/MatMul i1 [10, 128] scale=0.0042905933 zero_point=0
000000 dc fc b7 f6 13 e2 c8 1c f9 0c c9 27 df 05 eb 20
       -0.15446135 -0.017162373 -0.31321332 -0.042905934 0.08152127 -0.1287178 -0.24027322 0.12013661 -0.030034153 0.051487118 -0.23598263 0.16733314 -0.14158958 0.021452967 -0.09010246 0.13729899
000010 09 e3 ab 28 17 e0 d8 2d c9 e9 1e 19 d3 12 e8 c7
       0.03861534 -0.12442721 -0.36470044 0.17162374 0.09868365 -0.13729899 -0.17162374 0.1930767 -0.23598263 -0.09868365 0.1287178 0.10726483 -0.1930767 0.07723068 -0.102974236 -0.24456382
000020 d3 d2 de d2 12 06 16 bb da 11 c0 04 1e de 14 d6
       -0.1930767 -0.1973673 -0.14588018 -0.1973673 0.07723068 0.025743559 0.09439305 -0.29605094 -0.16304255 0.07294009 -0.27459797 0.017162373 0.1287178 -0.14588018 0.08581187 -0.18020491
000030 dc 1a 26 81 c0 1b 27 04 d3 06 cf b9 ce fe b5 0e
       -0.15446135 0.11155543 0.16304255 -0.54490536 -0.27459797 0.11584602 0.16733314 0.017162373 -0.1930767 0.025743559 -0.21023907 -0.30463213 -0.21452966 -0.008581187 -0.3217945 0.060068306
000040 dd e8 04 18 21 17 21 ff e2 1b 07 cf 1f 0f 13 e6
       -0.15017077 -0.102974236 0.017162373 0.102974236 0.14158958 0.09868365 0.14158958 -0.0042905933 -0.1287178 0.11584602 0.030034153 -0.21023907 0.13300839 0.0643589 0.08152127 -0.11155543
000050 0f c3 0d d4 a8 e4 e5 e7 f8 16 12 2d e3 db 0f 26
       0.0643589 -0.2617262 0.055777714 -0.1887861 -0.3775722 -0.12013661 -0.11584602 -0.10726483 -0.034324747 0.09439305 0.07723068 0.1930767 -0.12442721 -0.15875195 0.0643589 0.16304255
000060 2a 20 e2 be ff 2c 22 c9 0a 0a 08 1f 1d e8 eb f2
       0.18020491 0.13729899 -0.1287178 -0.28317916 -0.0042905933 0.1887861 0.14588018 -0.23598263 0.042905934 0.042905934 0.034324747 0.13300839 0.12442721 -0.102974236 -0.09010246 -0.060068306
000070 22 ee 21 ef 15 17 0e d0 17 09 0c 10 b8 15 e7 fc
       0.14588018 -0.07723068 0.14158958 -0.07294009 0.09010246 0.09868365 0.060068306 -0.20594847 0.09868365 0.03861534 0.051487118 0.06864949 -0.3089227 0.09010246 -0.10726483 -0.017162373
000080 22 1e 14 13 16 05 24 d7 21 d2 96 b8 d7 19 22 bb
       0.14588018 0.1287178 0.08581187 0.08152127 0.09439305 0.021452967 0.15446135 -0.17591433 0.14158958 -0.1973673 -0.4548029 -0.3089227 -0.17591433 0.10726483 0.14588018 -0.29605094
000090 ef d2 a4 bd cc 08 11 22 1c c5 cf b0 36 af ef 1d
       -0.07294009 -0.1973673 -0.3947346 -0.28746974 -0.22311085 0.034324747 0.07294009 0.14588018 0.12013661 -0.253145 -0.21023907 -0.34324747 0.23169205 -0.34753805 -0.07294009 0.12442721
0000a0 0d 2d 22 c4 9b 04 d2 21 23 d3 be c6 cb b6 d8 28
       0.055777714 0.1930767 0.14588018 -0.2574356 -0.43334994 0.017162373 -0.1973673 0.14158958 0.15017077 -0.1930767 -0.28317916 -0.24885441 -0.22740145 -0.3175039 -0.17162374 0.17162374
0000b0 c1 27 ab b3 c9 c7 2b d4 0b 2b d2 a4 c3 26 c2 1c
       -0.2703074 0.16733314 -0.36470044 -0.33037567 -0.23598263 -0.24456382 0.18449551 -0.1887861 0.047196526 0.18449551 -0.1973673 -0.3947346 -0.2617262 0.16304255 -0.26601678 0.12013661
0000c0 c6 bb fa d5 22 26 22 1f f1 17 0e b3 e6 e4 1b fa
       -0.24885441 -0.29605094 -0.025743559 -0.18449551 0.14588018 0.16304255 0.14588018 0.13300839 -0.0643589 0.09868365 0.060068306 -0.33037567 -0.11155543 -0.12013661 0.11584602 -0.025743559
0000d0 c1 b3 19 b3 0c f2 bb 10 a3 18 cb 2d c6 2d 26 22
       -0.2703074 -0.33037567 0.10726483 -0.33037567 0.051487118 -0.060068306 -0.29605094 0.06864949 -0.39902517 0.102974236 -0.22740145 0.1930767 -0.24885441 0.1930767 0.16304255 0.14588018
0000e0 e9 0d 19 e1 06 0b d5 0c 07 cc 15 fe d0 28 c1 f3
       -0.09868365 0.055777714 0.10726483 -0.13300839 0.025743559 0.047196526 -0.18449551 0.051487118 0.030034153 -0.22311085 0.09010246 -0.008581187 -0.20594847 0.17162374 -0.2703074 -0.055777714
0000f0 0e cc db db d8 a4 10 1c f9 c8 af 13 c5 e7 1c 2d
       0.060068306 -0.22311085 -0.15875195 -0.15875195 -0.17162374 -0.3947346 0.06864949 0.12013661 -0.030034153 -0.24027322 -0.34753805 0.08152127 -0.253145 -0.10726483 0.12013661 0.1930767
