model/quant_cifar10.onnx (onnx, 943557 bytes, 28 tensors)

onnx::DequantizeLinear_263 i1 [32, 3, 3, 3]
000000 cd 30 00 42 1f 0b e3 03 c7 b8 f0 ec 27 5f 90 d3
       -51 48 0 66 31 11 -29 3 -57 -72 -16 -20 39 95 -112 -45
000010 22 49 e1 5b ec 14 7f 92 ce f0 e8 5c ba c2 af 9d
       34 73 -31 91 -20 20 127 -110 -50 -16 -24 92 -70 -62 -81 -99
000020 b7 7f 6b 52 1c eb 29 93 ba c3 45 5c ce fd 51 6b
       -73 127 107 82 28 -21 41 -109 -70 -61 69 92 -50 -3 81 107
000030 07 fe 32 a3 16 98 90 b7 39 2a b7 37 36 ef 05 06
       7 -2 50 -93 22 -104 -112 -73 57 42 -73 55 54 -17 5 6
000040 44 77 95 cc 3c 56 65 68 0f 93 11 af 8a 7f 58 83
       68 119 -107 -52 60 86 101 104 15 -109 17 -81 -118 127 88 -125
000050 19 e9 f1 dd 33 b6 2e 44 56 29 80 ae 51 1a 99 b9
       25 -23 -15 -35 51 -74 46 68 86 41 -128 -82 81 26 -103 -71
000060 7d 52 c9 e4 93 1c a8 a3 06 21 d2 51 be 7f 6a 96
       125 82 -55 -28 -109 28 -88 -93 6 33 -46 81 -66 127 106 -106
000070 e0 0d 09 13 37 12 ce 45 91 b2 db cf d3 a2 fb 2e
       -32 13 9 19 55 18 -50 69 -111 -78 -37 -49 -45 -94 -5 46
000080 b8 0c 5e ec 14 f7 18 52 7b 4d 75 f6 88 c0 5a fc
       -72 12 94 -20 20 -9 24 82 123 77 117 -10 -120 -64 90 -4
000090 c3 9a 80 8e e0 3f 44 86 50 a2 e9 cf e0 e3 8d 8d
       -61 -102 -128 -114 -32 63 68 -122 80 -94 -23 -49 -32 -29 -115 -115
0000a0 f0 08 d7 2f 9a fa 67 c1 59 23 80 52 ec b7 61 9f
       -16 8 -41 47 -102 -6 103 -63 89 35 -128 82 -20 -73 97 -97
0000b0 e7 e6 4c fc 42 2a da f1 a9 25 55 52 98 11 9c b6
       -25 -26 76 -4 66 42 -38 -15 -87 37 85 82 -104 17 -100 -74
0000c0 b3 36 b2 0a 1f 65 a5 a3 ba 5e de 7f 39 2e 18 f0
       -77 54 -78 10 31 101 -91 -93 -70 94 -34 127 57 46 24 -16
0000d0 09 e5 fe 16 9f bd 7e a7 f3 78 2e 0a 9d 35 ba de
       9 -27 -2 22 -97 -67 126 -89 -13 120 46 10 -99 53 -70 -34
0000e0 db ec 04 59 10 55 3b bb 24 ac c6 21 28 49 c9 fc
       -37 -20 4 89 16 85 59 -69 36 -84 -58 33 40 73 -55 -4
0000f0 29 81 4c a4 fe f9 c5 14 75 ed b7 dd 80 26 c6 ae
       41 -127 76 -92 -2 -7 -59 20 117 -19 -73 -35 -128 38 -58 -82

onnx::DequantizeLinear_264 f4 [32]
000000 34 2d 96 3c 1d 86 78 3c de 7b f3 3b 37 5c be 3b
       0.018332101 0.015168694 0.0074305376 0.0058093327
000010 95 16 17 3c 1b e6 6b 3b 0e a0 0d 3c 2f 27 ef 3b
       0.009221693 0.0035995308 0.008644117 0.007298372
000020 f5 cc 1a 3c cc 4c 0c 3c 63 2a 04 3c 99 72 17 3c
       0.00944828 0.008563232 0.008066746 0.009243631
000030 74 de 5b 3b 0c e7 53 3c 03 bc 66 3b cb dc 94 3c
       0.003354934 0.012933504 0.0035207279 0.018171689
000040 fe a3 3f 3c f0 9b 34 3c e9 6e f8 3b 0c 80 e9 3b
       0.011696814 0.0110235065 0.007581581 0.00712586
000050 52 98 4f 3c ad f2 20 3c ad 77 36 3c 29 46 39 3c
       0.012670593 0.009823483 0.011136931 0.011308231
000060 ca 2f 19 3c 91 57 88 3c 11 69 2f 3c 0d c8 f7 3b
       0.009349773 0.016643317 0.010706202 0.0075616897
000070 53 02 12 3c 61 c5 96 3c 9d b6 09 3c ca 51 d1 3b
       0.008911687 0.018404664 0.008405355 0.006387924

onnx::DequantizeLinear_265 i1 [32]
000000 00 00 00 00 00 00 00 00 00 00 00 00 00 00 00 00
       0 0 0 0 0 0 0 0 0 0 0 0 0 0 0 0
000010 00 00 00 00 00 00 00 00 00 00 00 00 00 00 00 00
       0 0 0 0 0 0 0 0 0 0 0 0 0 0 0 0

onnx::DequantizeLinear_271 f4 [32]
000000 01 49 97 39 c4 5b 7a 39 ff 47 f5 38 f4 c3 bf 38
       0.00028855357 0.00023876043 0.00011695921 9.144089e-05
000010 1b 34 18 39 e6 a3 6d 38 b2 ab 0e 39 21 eb f0 38
       0.0001451526 5.6657846e-05 0.00013606137 0.00011487888
000020 7f f1 1b 39 ef 55 0d 39 26 24 05 39 cd 90 18 39
       0.00014871916 0.0001347882 0.00012697335 0.00014549792
000030 f4 7d 5d 38 7e 77 55 39 0c 70 68 38 1c f6 95 39
       5.280781e-05 0.00020357777 5.5417462e-05 0.0002860286
000040 26 0e 41 39 3f f1 35 39 64 44 fa 38 4f 39 eb 38
       0.00018411185 0.00017351376 0.00011933668 0.00011216348
000050 a1 20 51 39 d5 22 22 39 7f d0 37 39 49 a4 3a 39
       0.00019943948 0.000154625 0.00017529911 0.00017799543
000060 47 51 1a 39 39 59 89 39 8d b4 30 39 4d 9c f9 38
       0.00014716863 0.00026197152 0.00016851928 0.000119023585
000070 3f 16 13 39 4d e2 97 39 dc ba 0a 39 5b dd d2 38
       0.000140273 0.00028969572 0.00013230316 0.00010054811

onnx::DequantizeLinear_276 i1 [32, 32, 3, 3]
000000 34 1d d5 0d 80 fa de 12 66 16 ab 11 d2 f2 d6 33
       52 29 -43 13 -128 -6 -34 18 102 22 -85 17 -46 -14 -42 51
000010 0f e8 1c d1 fd 35 e3 28 14 32 ba 16 b5 fd 08 11
       15 -24 28 -47 -3 53 -29 40 20 50 -70 22 -75 -3 8 17
000020 30 37 3e 23 2d f5 cf df f3 e4 22 1f 09 06 3c 11
       48 55 62 35 45 -11 -49 -33 -13 -28 34 31 9 6 60 17
000030 c3 ba 05 f7 0a b0 c4 28 2e d2 2b be 3b 1a 1e a9
       -61 -70 5 -9 10 -80 -60 40 46 -46 43 -66 59 26 30 -87
000040 b2 3a 33 2a 3a d5 30 b8 08 dc db 04 d3 f3 b9 cb
       -78 58 51 42 58 -43 48 -72 8 -36 -37 4 -45 -13 -71 -53
000050 26 cb cd d7 b3 bd 33 19 13 ea 2e f8 ca f0 2f d8
       38 -53 -51 -41 -77 -67 51 25 19 -22 46 -8 -54 -16 47 -40
000060 c0 20 3a ab fb 38 f4 28 4b 33 e0 de 22 44 c6 2e
       -64 32 58 -85 -5 56 -12 40 75 51 -32 -34 34 68 -58 46
000070 03 b8 12 db 05 b6 c9 2a c5 43 0e 37 19 d6 27 02
       3 -72 18 -37 5 -74 -55 42 -59 67 14 55 25 -42 39 2
000080 0d e6 06 ff 02 d0 0f f2 f7 27 d2 d7 13 fd 25 19
       13 -26 6 -1 2 -48 15 -14 -9 39 -46 -41 19 -3 37 25
000090 f6 ca 0d 1c 36 d8 d8 f0 09 c0 e1 44 f6 f3 f5 36
       -10 -54 13 28 54 -40 -40 -16 9 -64 -31 68 -10 -13 -11 54
0000a0 05 1d 37 1c fd e9 18 08 ca ff ca 2d cb 2b e4 c2
       5 29 55 28 -3 -23 24 8 -54 -1 -54 45 -53 43 -28 -62
0000b0 06 10 1b f8 95 26 ca f8 0b 09 b5 e9 58 14 55 fc
       6 16 27 -8 -107 38 -54 -8 11 9 -75 -23 88 20 85 -4
0000c0 d8 67 1f 52 c5 cc c6 e2 2d 3a 40 c5 37 d0 21 ae
       -40 103 31 82 -59 -52 -58 -30 45 58 64 -59 55 -48 33 -82
0000d0 aa 1b 22 34 35 e7 32 e0 20 37 1e fb 0a e5 e2 11
       -86 27 34 52 53 -25 50 -32 32 55 30 -5 10 -27 -30 17
0000e0 d2 51 c5 e1 f2 9e 1a dd 10 fe 3d 43 c3 2e c7 b4
       -46 81 -59 -31 -14 -98 26 -35 16 -2 61 67 -61 46 -57 -76
0000f0 01 0d f0 e7 01 05 b8 b7 11 d0 e5 12 06 e9 d5 28
       1 13 -16 -25 1 5 -72 -73 17 -48 -27 18 6 -23 -43 40

onnx::DequantizeLinear_277 f4 [32]
000000 bd 60 ec 3a fc f3 aa 3a 0a 55 dd 3a 74 08 aa 3a
       0.0018034201 0.0013042684 0.0016886306 0.001297249
000010 bb 01 9b 3a 5e 62 d1 3a 67 3e f3 3a c0 fa a6 3a
       0.0011826077 0.001597475 0.0018558026 0.0012739524
000020 78 67 e6 3a de 55 eb 3a 1a 9d c4 3a 42 d5 b8 3a
       0.0017578444 0.0017954668 0.0015000433 0.0014101642
000030 ef c6 f0 3a 02 28 f0 3a b6 d6 cc 3a 16 cd 10 3b
       0.0018369834 0.001832247 0.0015627954 0.0022094897
000040 35 54 97 3a 4d 94 b4 3a 74 7c 02 3b 97 6a a2 3a
       0.0011545481 0.0013777107 0.0019910606 0.0012391385
000050 b5 56 a6 3a 32 d3 98 3a 0a 6d d7 3a 07 b8 e7 3a
       0.0012690636 0.0011659621 0.0016435694 0.0017678746
000060 ae fd 8f 3a f6 d8 df 3a 0a fc 9c 3a 3a 73 d8 3a
       0.0010985637 0.0017078209 0.0011976969 0.0016513832
000070 0e 9b 97 3a 1f be 97 3a 94 7a d1 3a 4d 6b bc 3a
       0.0011566596 0.0011577046 0.0015981966 0.001437524

onnx::DequantizeLinear_284 f4 [32]
000000 9a e0 bb 38 65 e0 87 38 34 eb af 38 31 25 87 38
       8.95869e-05 6.4790984e-05 8.38846e-05 6.444229e-05
000010 7e 67 76 38 1e 6c a6 38 a0 55 c1 38 e1 b7 84 38
       5.8747355e-05 7.935635e-05 9.218906e-05 6.3285006e-05
000020 1c 21 b7 38 7d 0c bb 38 a5 45 9c 38 99 e8 92 38
       8.732287e-05 8.919181e-05 7.451632e-05 7.005147e-05
000030 b9 5f bf 38 68 e1 be 38 39 cf a2 38 57 2e e6 38
       9.1254195e-05 9.101891e-05 7.76336e-05 0.00010975886
000040 d0 8e 70 38 14 87 8f 38 e9 6c cf 38 67 17 81 38
       5.7353463e-05 6.8439316e-05 9.890815e-05 6.1555584e-05
000050 7e 35 84 38 a0 ef 72 38 70 39 ab 38 9d 2c b8 38
       6.304214e-05 5.7920464e-05 8.164614e-05 8.7821136e-05
000060 a4 e4 64 38 01 eb b1 38 57 8c 79 38 d4 09 ac 38
       5.4572374e-05 8.4837906e-05 5.9496928e-05 8.20343e-05
000070 6f ff 70 38 2d 37 71 38 5c 7f a6 38 47 c2 95 38
       5.745835e-05 5.7510264e-05 7.939219e-05 7.1410606e-05

onnx::DequantizeLinear_291 i1 [64, 32, 3, 3]
000000 24 d3 09 d5 29 b2 c7 dc bc 47 bf e2 ed fa c1 34
       36 -45 9 -43 41 -78 -57 -36 -68 71 -65 -30 -19 -6 -63 52
000010 a5 be c9 ad bb fe 37 ef cc 15 2b c2 d6 46 1d b5
       -91 -66 -55 -83 -69 -2 55 -17 -52 21 43 -62 -42 70 29 -75
000020 05 b7 b2 d2 5f df 5e b3 d8 4c d5 b1 cf e0 36 e0
       5 -73 -78 -46 95 -33 94 -77 -40 76 -43 -79 -49 -32 54 -32
000030 d1 43 38 da 01 e8 46 d7 d5 2d fc d5 2b 1b be 34
       -47 67 56 -38 1 -24 70 -41 -43 45 -4 -43 43 27 -66 52
000040 42 08 ae 23 31 b8 bc f4 c3 d8 56 fa 16 15 3c fa
       66 8 -82 35 49 -72 -68 -12 -61 -40 86 -6 22 21 60 -6
000050 05 50 ea 50 fa 3e c7 ce 32 cd 13 5a 0a d9 e1 db
       5 80 -22 80 -6 62 -57 -50 50 -51 19 90 10 -39 -31 -37
000060 cc 2e 0c fe 1c 2f 01 29 ea 1e 12 02 40 5f 47 f1
       -52 46 12 -2 28 47 1 41 -22 30 18 2 64 95 71 -15
000070 fc 4b d3 15 e2 f3 eb 53 df e1 23 eb f6 c5 cc 21
       -4 75 -45 21 -30 -13 -21 83 -33 -31 35 -21 -10 -59 -52 33
000080 25 bc c5 17 cf dd e4 d0 dd 47 b6 2a ba e4 d6 26
       37 -68 -59 23 -49 -35 -28 -48 -35 71 -74 42 -70 -28 -42 38
000090 c5 e0 b1 e5 24 4f 4f f3 e5 1c 47 52 29 ef c6 cd
       -59 -32 -79 -27 36 79 79 -13 -27 28 71 82 41 -17 -58 -51
0000a0 2a c9 b3 c9 e7 14 29 34 1e fd d7 e6 ec 06 3c d0
       42 -55 -77 -55 -25 20 41 52 30 -3 -41 -26 -20 6 60 -48
0000b0 e4 ec c7 c7 12 cf 0d e9 0c f4 c5 d8 e6 20 0c ed
       -28 -20 -57 -57 18 -49 13 -23 12 -12 -59 -40 -26 32 12 -19
0000c0 36 f3 23 d6 aa ad db 2f 31 f9 07 c2 d0 db 97 c2
       54 -13 35 -42 -86 -83 -37 47 49 -7 7 -62 -48 -37 -105 -62
0000d0 d5 28 fa ea 2b d1 cc f1 29 02 b5 28 ac 22 19 01
       -43 40 -6 -22 43 -47 -52 -15 41 2 -75 40 -84 34 25 1
0000e0 30 08 b5 1e 3e e5 3a 2d e4 f2 f3 3f 26 32 a2 d3
       48 8 -75 30 62 -27 58 45 -28 -14 -13 63 38 50 -94 -45
0000f0 c0 06 dd 1c 38 ee 12 cd e9 0a 2f 15 08 25 43 fc
       -64 6 -35 28 56 -18 18 -51 -23 10 47 21 8 37 67 -4

onnx::DequantizeLinear_292 f4 [64]
000000 c4 84 9c 3a ec 59 9d 3a 47 96 94 3a 36 df 9b 3a
       0.0011941423 0.0012004948 0.001133629 0.0011892084
000010 86 28 b5 3a d8 02 92 3a ca 49 9d 3a 68 25 b5 3a
       0.0013821281 0.0011139764 0.001200014 0.0013820352
000020 c1 94 a7 3a 28 9a aa 3a d7 b9 90 3a 79 bc 8e 3a
       0.0012785421 0.0013015913 0.0011041713 0.001088991
000030 8e 73 92 3a 43 82 9b 3a 26 9a 8d 3a a5 f1 6b 3a
       0.0011173354 0.0011864383 0.0010803386 0.00090005464
000040 43 85 d4 3a 84 35 a2 3a 0e a3 8f 3a ff 02 bd 3a
       0.0016214031 0.0012375568 0.0010958628 0.0014420449
000050 c3 4c be 3a e4 38 ab 3a 4e 5c 95 3a bb 29 a1 3a
       0.0014518726 0.0013063219 0.0011395307 0.0012295762
000060 98 14 ad 3a 60 4f c3 3a 6e 73 b1 3a d0 bc c8 3a
       0.001320499 0.0014900975 0.0013538429 0.001531506
000070 32 8d a0 3a e5 df a2 3a c5 cf ad 3a 3c 72 9a 3a
       0.0012249111 0.0012426345 0.0013260773 0.0011783312
000080 5f a4 9a 3a 35 15 9e 3a 0f 68 9a 3a 47 2b ae 3a
       0.0011798254 0.0012060764 0.001178028 0.0013288044
000090 5a a5 90 3a 62 b2 89 3a c9 9c a9 3a ee 6c 8e 3a
       0.0011035607 0.0010505433 0.0012940402 0.0010866204
0000a0 eb 32 a6 3a 49 a6 a3 3a 8a e1 93 3a 52 3e 96 3a
       0.001267997 0.001248547 0.0011282426 0.0011462665
0000b0 f1 5d a9 3a db 66 c1 3a 8a 83 83 3a 20 d5 c9 3a
       0.0012921673 0.0014755385 0.0010033709 0.0015398599
0000c0 3f 5e 89 3a 71 bd 99 3a 40 94 7f 3a 2e 09 ac 3a
       0.0010480358 0.0011729432 0.0009749569 0.0013125294
0000d0 07 54 99 3a c4 0b 7c 3a 3b c1 94 3a a1 83 a8 3a
       0.0011698016 0.00096147903 0.0011349091 0.0012856611
0000e0 8a 54 b5 3a 90 91 ba 3a 27 78 97 3a 85 28 a9 3a
       0.0013834399 0.0014234055 0.0011556194 0.0012905753
0000f0 56 37 8d 3a 8f 76 a0 3a 27 ab b1 3a 75 bb 93 3a
       0.0010773938 0.0012242364 0.0013555036 0.0011271077

onnx::DequantizeLinear_293 i1 [64]
000000 00 00 00 00 00 00 00 00 00 00 00 00 00 00 00 00
       0 0 0 0 0 0 0 0 0 0 0 0 0 0 0 0
000010 00 00 00 00 00 00 00 00 00 00 00 00 00 00 00 00
       0 0 0 0 0 0 0 0 0 0 0 0 0 0 0 0
000020 00 00 00 00 00 00 00 00 00 00 00 00 00 00 00 00
       0 0 0 0 0 0 0 0 0 0 0 0 0 0 0 0
000030 00 00 00 00 00 00 00 00 00 00 00 00 00 00 00 00
       0 0 0 0 0 0 0 0 0 0 0 0 0 0 0 0

onnx::DequantizeLinear_299 f4 [64]
000000 98 cd 87 38 8a 86 88 38 d8 eb 80 38 f3 3d 87 38
       6.4755965e-05 6.510045e-05 6.147445e-05 6.4488406e-05
000010 82 2e 9d 38 60 5f 7d 38 8b 78 88 38 ce 2b 9d 38
       7.495006e-05 6.0408725e-05 6.507438e-05 7.494503e-05
000020 c4 66 91 38 ce 05 94 38 75 24 7b 38 8e b0 77 38
       6.9332804e-05 7.058271e-05 5.9877017e-05 5.905382e-05
000030 f7 22 7e 38 4e ed 86 38 c1 b8 75 38 61 b7 4c 38
       6.0590883e-05 6.433819e-05 5.8584617e-05 4.8808175e-05
000040 a1 64 b8 38 8a bd 8c 38 af 40 79 38 e4 fe a3 38
       8.792547e-05 6.7110246e-05 5.9426467e-05 7.819923e-05
000050 03 1d a5 38 88 8f 94 38 aa 97 81 38 33 d5 8b 38
       7.873217e-05 7.083925e-05 6.179449e-05 6.667748e-05
000060 46 2c 96 38 df 75 a9 38 08 f7 99 38 6a 2b ae 38
       7.160804e-05 8.080503e-05 7.341622e-05 8.305053e-05
000070 61 4d 8b 38 5f 51 8d 38 ad ce 96 38 48 01 86 38
       6.6424494e-05 6.7385605e-05 7.191054e-05 6.3898566e-05
000080 c8 2c 86 38 09 29 89 38 73 f8 85 38 13 1e 97 38
       6.397959e-05 6.5403125e-05 6.3882115e-05 7.205843e-05
000090 e7 00 7b 38 de f1 6e 38 f8 29 93 38 86 26 77 38
       5.9843904e-05 5.696888e-05 7.0173235e-05 5.8925267e-05
0000a0 c2 33 90 38 81 fd 8d 38 07 4f 80 38 c4 5b 82 38
       6.876096e-05 6.770623e-05 6.1182356e-05 6.215976e-05
0000b0 71 f3 92 38 02 ce a7 38 2a 37 64 38 a0 1e af 38
       7.007167e-05 8.0015525e-05 5.441081e-05 8.3503546e-05
0000c0 dd 5f 6e 38 6a 64 85 38 b5 c0 5d 38 41 44 95 38
       5.68329e-05 6.360638e-05 5.286998e-05 7.117587e-05
0000d0 f4 08 85 38 ef af 5a 38 1d 11 81 38 06 36 92 38
       6.343602e-05 5.21391e-05 6.154387e-05 6.971885e-05
0000e0 b3 54 9d 38 3c e0 a1 38 0f 6c 83 38 17 c5 92 38
       7.50212e-05 7.718845e-05 6.266694e-05 6.998533e-05
0000f0 49 0d 75 38 bd 39 8b 38 61 27 9a 38 fc 2d 80 38
       5.8424925e-05 6.638791e-05 7.350627e-05 6.112081e-05

onnx::DequantizeLinear_304 i1 [64, 64, 3, 3]
000000 10 c2 a8 32 23 22 b4 07 aa 61 12 49 dc 29 08 0e
       16 -62 -88 50 35 34 -76 7 -86 97 18 73 -36 41 8 14
000010 42 17 45 60 5b e8 50 13 2c a2 cc 26 00 c5 22 ba
       66 23 69 96 91 -24 80 19 44 -94 -52 38 0 -59 34 -70
000020 02 9f 01 30 11 06 0f 3a 02 ba 52 1d 00 f5 cd 05
       2 -97 1 48 17 6 15 58 2 -70 82 29 0 -11 -51 5
000030 c6 aa 36 09 18 45 4e cb 10 0b cc ed ba b7 c4 19
       -58 -86 54 9 24 69 78 -53 16 11 -52 -19 -70 -73 -60 25
000040 1e c5 e3 b7 d1 0a 38 20 e6 ed 1e 3e 57 04 e8 ed
       30 -59 -29 -73 -47 10 56 32 -26 -19 30 62 87 4 -24 -19
000050 c9 03 fe 4f 65 12 c7 80 d4 19 55 fb 11 f9 1e 0a
       -55 3 -2 79 101 18 -57 -128 -44 25 85 -5 17 -7 30 10
000060 19 e9 fa cb d3 fb 5b 39 3c 27 d6 cf de f7 fa 54
       25 -23 -6 -53 -45 -5 91 57 60 39 -42 -49 -34 -9 -6 84
000070 0d d7 d8 c1 04 e3 a2 0c 26 c3 ec dc 19 2b f7 f9
       13 -41 -40 -63 4 -29 -94 12 38 -61 -20 -36 25 43 -9 -7
000080 e8 e2 cb 0b 1c cd b0 cb 1f 53 c1 13 db c9 d2 f7
       -24 -30 -53 11 28 -51 -80 -53 31 83 -63 19 -37 -55 -46 -9
000090 3c fb cb 51 3a e1 d3 4f 1d 23 2c 2c 2b c2 38 c7
       60 -5 -53 81 58 -31 -45 79 29 35 44 44 43 -62 56 -57
0000a0 a8 fe 63 34 c0 d8 02 b9 26 ec 26 16 e4 14 e7 c8
       -88 -2 99 52 -64 -40 2 -71 38 -20 38 22 -28 20 -25 -56
0000b0 ea fc e9 f7 da fe b7 c5 19 d0 05 26 e2 3e 21 d8
       -22 -4 -23 -9 -38 -2 -73 -59 25 -48 5 38 -30 62 33 -40
0000c0 b7 af eb f5 44 16 29 fc 25 fd 65 31 1c b6 24 e8
       -73 -81 -21 -11 68 22 41 -4 37 -3 101 49 28 -74 36 -24
0000d0 20 be 36 2c c3 b4 ae e0 df ef fd 9d fc 01 d7 22
       32 -66 54 44 -61 -76 -82 -32 -33 -17 -3 -99 -4 1 -41 34
0000e0 d7 f0 29 3a 0b 04 13 4a d0 1a 19 57 0c d3 4b 47
       -41 -16 41 58 11 4 19 74 -48 26 25 87 12 -45 75 71
0000f0 0b 20 17 f9 62 c5 ab 24 28 15 0f e7 b7 de f1 b1
       11 32 23 -7 98 -59 -85 36 40 21 15 -25 -73 -34 -15 -79

onnx::DequantizeLinear_305 f4 [64]
000000 99 ab b1 3a b3 ba a4 3a 02 67 a4 3a d9 66 aa 3a
       0.0013555168 0.0012567848 0.0012542906 0.0013000622
000010 03 07 9b 3a 59 41 75 3a 68 13 90 3a f8 72 99 3a
       0.0011827651 0.0009355746 0.0010992112 0.0011707237
000020 64 83 86 3a 1e 7f 8b 3a 67 48 7d 3a 0d 9a ab 3a
       0.0010262546 0.0010642742 0.0009661973 0.0013092175
000030 b6 92 9a 3a 7c 4c 96 3a e1 8a 8f 3a ab 75 b1 3a
       0.0011792991 0.0011466886 0.0010951423 0.0013539096
000040 b3 c2 b8 3a b6 3d a9 3a 90 b4 ad 3a c3 82 8e 3a
       0.0014096111 0.0012912068 0.0013252664 0.001087271
000050 4f 75 90 3a 2f ab 84 3a 85 6b 90 3a a0 d0 86 3a
       0.0011021289 0.0010121817 0.0011018371 0.0010285564
000060 3d 67 a6 3a 22 b6 96 3a cb b1 95 3a 59 7d 94 3a
       0.0012695562 0.0011498372 0.0011420784 0.001132886
000070 6a fb 9e 3a 20 d2 9c 3a f6 93 8c 3a 4d 2b 9e 3a
       0.0012129371 0.0011964478 0.0010725248 0.0012067348
000080 76 f0 a7 3a 15 a1 9a 3a 4b 72 84 3a a0 68 a9 3a
       0.0012812752 0.0011797274 0.0010104863 0.0012924857
000090 28 a0 8e 3a d0 2a a2 3a d1 b5 91 3a 27 76 8b 3a
       0.001088147 0.0012372378 0.0011116808 0.001064007
0000a0 42 65 ac 3a 2a 64 a4 3a ae 9f a1 3a 93 25 bf 3a
       0.0013152736 0.0012542058 0.0012330913 0.0014583342
0000b0 30 38 97 3a 94 da 98 3a 4e cf 8e 3a 55 7d ba 3a
       0.0011537131 0.0011661821 0.0010895522 0.0014228026
0000c0 5a 56 9e 3a 79 e5 9e 3a ce 3c 73 3a ea c0 b4 3a
       0.0012080178 0.0012122832 0.0009278775 0.0013790403
0000d0 61 71 ab 3a eb 72 ab 3a 05 bf b5 3a 46 cd a7 3a
       0.0013080054 0.0013080513 0.0013866132 0.0012802265
0000e0 9f d7 b5 3a 2f 43 b9 3a e6 55 aa 3a f8 7b a1 3a
       0.0013873464 0.0014134402 0.001299557 0.0012320271
0000f0 5d 2c 88 3a 62 14 ab 3a a1 2d a0 3a 67 ca 87 3a
       0.0010389198 0.0013052339 0.001222063 0.0010360003

onnx::DequantizeLinear_312 f4 [64]
000000 38 ee 89 38 a4 c4 7f 38 b3 42 7f 38 aa 49 84 38
       6.577041e-05 6.0979874e-05 6.0858856e-05 6.3079715e-05
000010 54 b4 70 38 10 66 3e 38 4a b3 5f 38 fc 40 6e 38
       5.7388403e-05 4.5394583e-05 5.333432e-05 5.6804143e-05
000020 5c da 50 38 20 97 58 38 76 a1 44 38 28 38 85 38
       4.9794427e-05 5.163916e-05 4.6880414e-05 6.352394e-05
000030 c0 ff 6f 38 cb 5c 69 38 4f df 5e 38 5a c4 89 38
       5.7220226e-05 5.563795e-05 5.3136897e-05 6.5692424e-05
000040 56 6f 8f 38 fd 62 83 38 38 da 86 38 39 45 5d 38
       6.839509e-05 6.265005e-05 6.430264e-05 5.2754975e-05
000050 4c 4b 60 38 2f fd 4d 38 19 3c 60 38 47 52 51 38
       5.3475887e-05 4.9111604e-05 5.3461732e-05 4.990611e-05
000060 02 2f 81 38 d4 00 6a 38 9c 6c 68 38 b3 8d 66 38
       6.159955e-05 5.579072e-05 5.541426e-05 5.496824e-05
000070 3d d8 76 38 2c 7d 73 38 f8 44 5a 38 1d 95 75 38
       5.8852358e-05 5.805229e-05 5.2039482e-05 5.8551424e-05
000080 47 60 82 38 11 16 70 38 da a4 4d 38 4e 84 83 38
       6.216816e-05 5.724101e-05 4.902934e-05 6.2712104e-05
000090 dd 72 5d 38 46 ca 7b 38 f0 3c 62 38 35 89 58 38
       5.279748e-05 6.0031445e-05 5.393935e-05 5.1626197e-05
0000a0 e9 d5 85 38 48 3e 7f 38 40 f2 7a 38 89 64 94 38
       6.381778e-05 6.085474e-05 5.9830258e-05 7.075916e-05
0000b0 c2 ca 6a 38 60 54 6d 38 12 bc 5d 38 f6 c6 90 38
       5.597878e-05 5.6583784e-05 5.286566e-05 6.9035144e-05
0000c0 f4 d7 75 38 2c b6 76 38 0e d5 3c 38 fd 52 8c 38
       5.8613674e-05 5.882063e-05 4.5021116e-05 6.691178e-05
0000d0 95 18 85 38 c7 19 85 38 42 18 8d 38 f6 44 82 38
       6.346513e-05 6.3467356e-05 6.727922e-05 6.211728e-05
0000e0 5b 2b 8d 38 15 d3 8f 38 82 3c 84 38 cd ba 7a 38
       6.7314795e-05 6.8580885e-05 6.305521e-05 5.9778617e-05
0000f0 32 6e 53 38 63 d0 84 38 b0 b3 78 38 19 d6 52 38
       5.0408948e-05 6.3330655e-05 5.9295155e-05 5.0267296e-05

onnx::DequantizeLinear_319 i1 [128, 64, 3, 3]
000000 2c b8 c2 f4 0e ed d4 5e 13 c1 c2 ce 4c 11 23 1a
       44 -72 -62 -12 14 -19 -44 94 19 -63 -62 -50 76 17 35 26
000010 2c 15 27 c8 09 f4 19 0a f8 09 1f c1 dc 36 3b 3e
       44 21 39 -56 9 -12 25 10 -8 9 31 -63 -36 54 59 62
000020 dc 12 45 3b 3a c8 2a c4 c0 ee 14 cd bd f3 12 4e
       -36 18 69 59 58 -56 42 -60 -64 -18 20 -51 -67 -13 18 78
000030 3b 2f fb 1a 40 57 dd 00 f4 d2 43 bc da f4 4b 3c
       59 47 -5 26 64 87 -35 0 -12 -46 67 -68 -38 -12 75 60
000040 34 2d d4 e0 e9 00 f8 36 02 1e 13 b0 3a d7 1d 33
       52 45 -44 -32 -23 0 -8 54 2 30 19 -80 58 -41 29 51
000050 21 3a eb e5 1a 40 14 1d 00 1c 2b 0b d7 c2 e2 d1
       33 58 -21 -27 26 64 20 29 0 28 43 11 -41 -62 -30 -47
000060 27 1a dc 38 25 1c b7 e7 07 b8 9e bd 1f b7 1b 37
       39 26 -36 56 37 28 -73 -25 7 -72 -98 -67 31 -73 27 55
000070 e1 ae 00 05 0e 25 a9 c2 04 fb a9 cb d0 ad 0d d5
       -31 -82 0 5 14 37 -87 -62 4 -5 -87 -53 -48 -83 13 -43
000080 ce 11 0f c4 19 b4 08 cf 25 c9 bc 9e 17 15 b6 d0
       -50 17 15 -60 25 -76 8 -49 37 -55 -68 -98 23 21 -74 -48
000090 1e 02 e1 33 1e 51 24 e3 c0 ba e3 1e b3 c4 d4 d7
       30 2 -31 51 30 81 36 -29 -64 -70 -29 30 -77 -60 -44 -41
0000a0 15 dd c2 27 c8 a4 db ad 01 32 c3 f0 ef e2 e8 1a
       21 -35 -62 39 -56 -92 -37 -83 1 50 -61 -16 -17 -30 -24 26
0000b0 d0 20 00 33 29 31 02 3d 34 2e 33 e2 e8 f7 27 31
       -48 32 0 51 41 49 2 61 52 46 51 -30 -24 -9 39 49
0000c0 5e 10 fa 59 4b d4 da de d2 2a dc 24 0a 14 c2 ff
       94 16 -6 89 75 -44 -38 -34 -46 42 -36 36 10 20 -62 -1
0000d0 18 56 f7 42 f3 10 c0 c0 1e 49 3c e4 1e b2 b3 f6
       24 86 -9 66 -13 16 -64 -64 30 73 60 -28 30 -78 -77 -10
0000e0 fd e2 d3 a8 db b0 0a 05 1f 2e 09 1b 40 09 ed 27
       -3 -30 -45 -88 -37 -80 10 5 31 46 9 27 64 9 -19 39
0000f0 37 2c 1a 24 30 ff c3 10 b1 1a 17 31 0b c4 c0 2b
       55 44 26 36 48 -1 -61 16 -79 26 23 49 11 -60 -64 43

onnx::DequantizeLinear_320 f4 [128]
000000 11 db 95 3a 6b d3 58 3a e6 e4 79 3a 28 2d 65 3a
       0.0011433085 0.000827125 0.0009532705 0.00087423855
000010 cc 3c 66 3a 97 0b 50 3a bb 62 21 3a dd 14 86 3a
       0.0008782863 0.00079362973 0.00061563746 0.0010229606
000020 7a 40 7b 3a 28 d7 64 3a 1f 68 6a 3a 10 7e 8c 3a
       0.0009584498 0.00087295705 0.0008941907 0.0010718722
000030 96 76 69 3a f0 b2 76 3a a3 40 74 3a 29 e9 5c 3a
       0.00089059153 0.0009410819 0.0009317493 0.00084270776
000040 ff fc 82 3a 55 a9 73 3a a8 db 92 3a 0f b6 73 3a
       0.0009993612 0.0009294947 0.0011204379 0.0009296843
000050 81 c2 87 3a 03 ed 60 3a 69 17 59 3a e7 0f 4e 3a
       0.0010357649 0.00085802394 0.00082813815 0.0007860646
000060 33 eb 7f 3a db a0 59 3a ae b4 66 3a c1 2c 55 3a
       0.00097625254 0.00083018624 0.0008800727 0.0008131974
000070 02 a8 88 3a 0b f1 46 3a f4 27 63 3a e8 e2 79 3a
       0.0010426047 0.0007589019 0.0008665316 0.0009532408
000080 2b d4 80 3a c7 60 82 3a 21 34 71 3a f3 38 6a 3a
       0.0009828856 0.0009947055 0.0009201188 0.00089348777
000090 73 1c 82 3a 94 de 5d 3a 7b 20 66 3a 7e f7 6e 3a
       0.0009926691 0.00084636477 0.00087786437 0.00091158587
0000a0 c0 92 83 3a e1 9b 86 3a 47 be 50 3a 8b 6f 52 3a
       0.0010038242 0.0010269844 0.0007962924 0.00080274855
0000b0 12 98 7b 3a 57 1d 83 3a 41 96 7e 3a 05 29 61 3a
       0.00095975504 0.0010003251 0.00097117206 0.0008589181
0000c0 0e a1 6f 3a 77 58 83 3a b1 e2 6f 3a 95 51 4f 3a
       0.00091411255 0.0010020871 0.0009150906 0.000790858
0000d0 52 f4 62 3a 06 e6 65 3a 1f 86 81 3a 96 7c 67 3a
       0.00086576224 0.0008769933 0.000988189 0.00088305154
0000e0 cb ba 68 3a 8c c1 8b 3a 7b cf 7a 3a 3f 56 59 3a
       0.0008877932 0.001066254 0.000956766 0.0008290745
0000f0 72 1b 93 3a 27 48 59 3a ed ab 7a 3a 50 28 31 3a
       0.0011223389 0.00082886446 0.0009562362 0.0006758021
000100 4b be 4a 3a d0 f8 70 3a ec a6 61 3a ac 18 74 3a
       0.00077340443 0.00091923494 0.0008607942 0.0009311538
000110 df 8b 6e 3a af d6 89 3a 6c 0b 72 3a 34 d3 63 3a
       0.0009099822 0.0010516251 0.00092332694 0.00086908345
000120 7f 66 7a 3a b6 ed 6d 3a d1 08 64 3a b6 71 71 3a
       0.0009552016 0.0009076254 0.00086988235 0.00092103647
000130 32 77 60 3a 3f 33 80 3a 71 6d 81 3a 29 74 4b 3a
       0.00085626834 0.0009780898 0.0009874535 0.00077611447
000140 bd e3 80 3a 1c 98 8d 3a bf 85 62 3a 88 ed 6f 3a
       0.0009833496 0.0010802778 0.00086411455 0.00091525214
000150 a5 df 85 3a 0f a6 83 3a 42 60 5d 3a 6e 42 37 3a
       0.0010213746 0.0010043996 0.00084448245 0.0006990795
000160 76 52 5c 3a b6 bf 5b 3a af 1f 81 3a 6a d8 66 3a
       0.00084046216 0.0008382754 0.0009851361 0.0008806052
000170 a4 70 88 3a 7a 37 6d 3a 82 39 83 3a dc 76 5e 3a
       0.0010409546 0.0009049099 0.0010011645 0.00084863394
000180 10 31 7c 3a df b7 87 3a 67 d1 2d 3a 77 cb 7b 3a
       0.0009620348 0.001035448 0.00066306297 0.0009605209
000190 e3 b9 84 3a c4 ef 69 3a 17 4e 7b 3a 57 ac 93 3a
       0.0010126199 0.00089239725 0.00095865264 0.0011266571
0001a0 64 b3 61 3a 45 95 5f 3a 89 cb 75 3a 2f b1 75 3a
       0.00086098 0.0008529018 0.00093763374 0.0009372411
0001b0 5d 4c 7e 3a 73 e1 66 3a b2 3d 61 3a c4 4d 70 3a
       0.000970071 0.0008807398 0.0008592262 0.00091668614
0001c0 09 42 63 3a c6 c1 80 3a db ad 85 3a 1b 37 6f 3a
       0.0008669203 0.0009823374 0.0010198908 0.0009125338
0001d0 20 41 8f 3a af af 46 3a 90 5f 7b 3a 6d 3e 4d 3a
       0.0010929443 0.00075792795 0.000958913 0.00078294316
0001e0 8f bb 6f 3a ba 31 5d 3a b3 32 7d 3a 4d 4f 7a 3a
       0.0009145075 0.0008437891 0.0009658739 0.000954856
0001f0 03 cf 66 3a e0 bd 5e 3a fb fb 62 3a 40 90 7c 3a
       0.0008804651 0.00084969215 0.0008658764 0.0009634532

onnx::DequantizeLinear_321 i1 [128]
000000 00 00 00 00 00 00 00 00 00 00 00 00 00 00 00 00
       0 0 0 0 0 0 0 0 0 0 0 0 0 0 0 0
000010 00 00 00 00 00 00 00 00 00 00 00 00 00 00 00 00
       0 0 0 0 0 0 0 0 0 0 0 0 0 0 0 0
000020 00 00 00 00 00 00 00 00 00 00 00 00 00 00 00 00
       0 0 0 0 0 0 0 0 0 0 0 0 0 0 0 0
000030 00 00 00 00 00 00 00 00 00 00 00 00 00 00 00 00
       0 0 0 0 0 0 0 0 0 0 0 0 0 0 0 0
000040 00 00 00 00 00 00 00 00 00 00 00 00 00 00 00 00
       0 0 0 0 0 0 0 0 0 0 0 0 0 0 0 0
000050 00 00 00 00 00 00 00 00 00 00 00 00 00 00 00 00
       0 0 0 0 0 0 0 0 0 0 0 0 0 0 0 0
000060 00 00 00 00 00 00 00 00 00 00 00 00 00 00 00 00
       0 0 0 0 0 0 0 0 0 0 0 0 0 0 0 0
000070 00 00 00 00 00 00 00 00 00 00 00 00 00 00 00 00
       0 0 0 0 0 0 0 0 0 0 0 0 0 0 0 0

onnx::DequantizeLinear_327 f4 [128]
000000 07 e2 5a 38 be 59 1e 38 30 80 36 38 cc 5e 27 38
       5.2185755e-05 3.7753714e-05 4.3511565e-05 3.990419e-05
000010 2e 25 28 38 20 f0 17 38 4d b9 eb 37 bb d7 43 38
       4.0088948e-05 3.622484e-05 2.810047e-05 4.6692538e-05
000020 07 7e 37 38 fe 1f 27 38 a9 30 2b 38 e8 34 4d 38
       4.3747972e-05 3.9845698e-05 4.0814895e-05 4.892508e-05
000030 44 80 2a 38 d2 2a 34 38 6d 61 32 38 76 55 21 38
       4.0650615e-05 4.2955224e-05 4.2529242e-05 3.8464983e-05
000040 1c 53 3f 38 ed f2 31 38 21 81 56 38 38 fc 31 38
       4.561535e-05 4.242633e-05 5.1141837e-05 4.2434986e-05
000050 46 4b 46 38 1d 44 24 38 66 8b 1e 38 5b 7d 16 38
       4.7276983e-05 3.9164082e-05 3.779996e-05 3.5879533e-05
000060 8c e6 3a 38 c7 ef 1e 38 bc 7c 28 38 25 af 1b 38
       4.456057e-05 3.7893446e-05 4.017049e-05 3.7117996e-05
000070 7e 9a 47 38 1a 4a 11 38 14 e5 25 38 bb 7e 36 38
       4.758918e-05 3.4639706e-05 3.955241e-05 4.351021e-05
000080 a3 2b 3c 38 ef 6e 3e 38 69 27 30 38 36 0e 2b 38
       4.4863333e-05 4.5402845e-05 4.1998373e-05 4.0782812e-05
000090 22 0b 3e 38 b1 08 22 38 80 10 28 38 35 85 2e 38
       4.53099e-05 3.8631904e-05 4.0069688e-05 4.160889e-05
0000a0 d8 2d 40 38 f0 9c 44 38 a0 72 18 38 0b af 19 38
       4.5819063e-05 4.68762e-05 3.6346377e-05 3.6641064e-05
0000b0 ff bd 37 38 5a 82 3f 38 8d ed 39 38 f0 6f 24 38
       4.3807548e-05 4.5659348e-05 4.4328674e-05 3.9204897e-05
0000c0 0a 01 2f 38 b6 d8 3f 38 fa 30 2f 38 48 68 17 38
       4.172422e-05 4.5739776e-05 4.1768864e-05 3.6098325e-05
0000d0 5f bf 25 38 cf e5 27 38 8f 2f 3d 38 ba 0e 29 38
       3.9517294e-05 4.002993e-05 4.5105404e-05 4.0306455e-05
0000e0 1e f7 29 38 8e 21 4c 38 81 2b 37 38 4a b9 1e 38
       4.0522886e-05 4.866864e-05 4.3671116e-05 3.78427e-05
0000f0 4d de 56 38 ff ae 1e 38 8a 11 37 38 58 61 01 38
       5.122861e-05 3.7833113e-05 4.3646935e-05 3.0846655e-05
000100 e0 10 14 38 17 fc 2f 38 e3 cb 24 38 3d 44 32 38
       3.5301666e-05 4.195803e-05 3.929053e-05 4.250206e-05
000110 9c 36 2e 38 97 54 49 38 a4 c4 30 38 25 62 26 38
       4.153569e-05 4.8000915e-05 4.2144806e-05 3.966889e-05
000120 d5 de 36 38 1a c3 2d 38 4d 89 26 38 62 54 30 38
       4.359971e-05 4.1428117e-05 3.9705355e-05 4.2040258e-05
000130 12 ee 23 38 97 40 3b 38 83 0b 3d 38 b2 95 14 38
       3.908395e-05 4.464443e-05 4.5071833e-05 3.5425364e-05
000140 61 42 3c 38 df d0 4e 38 9e 6e 25 38 e4 38 2f 38
       4.4884513e-05 4.9308754e-05 3.9442086e-05 4.1776235e-05
000150 00 8a 43 38 0c 4a 40 38 71 ac 21 38 2e d6 05 38
       4.6620145e-05 4.584533e-05 3.854599e-05 3.190914e-05
000160 67 e7 20 38 3b 7c 20 38 f0 99 3c 38 d5 96 28 38
       3.8362483e-05 3.826267e-05 4.496606e-05 4.0194795e-05
000170 9f 49 47 38 04 3e 2d 38 7f ab 3f 38 e8 77 22 38
       4.7513862e-05 4.130417e-05 4.5697667e-05 3.873548e-05
000180 bb 2d 38 38 be 3b 46 38 fd e1 fd 37 88 e3 37 38
       4.391161e-05 4.7262518e-05 3.0265184e-05 4.3842505e-05
000190 ee dc 41 38 c4 d8 2a 38 f8 87 37 38 f0 b1 57 38
       4.6220543e-05 4.0733037e-05 4.375723e-05 5.142571e-05
0001a0 fe d4 24 38 13 49 23 38 d3 81 33 38 94 6e 33 38
       3.929901e-05 3.8930284e-05 4.2797834e-05 4.277991e-05
0001b0 96 b7 39 38 6e 9d 28 38 0a 7f 24 38 2c 7f 2f 38
       4.4278415e-05 4.020094e-05 3.921896e-05 4.184169e-05
0001c0 21 f8 25 38 c5 10 3c 38 46 41 43 38 aa b3 2e 38
       3.9570154e-05 4.483831e-05 4.6552414e-05 4.1652158e-05
0001d0 a9 3d 51 38 5e 1a 11 38 bb 94 37 38 5f e4 15 38
       4.988691e-05 3.459525e-05 4.3769116e-05 3.5737055e-05
0001e0 65 14 2f 38 75 8a 21 38 e3 e9 38 38 e5 cd 36 38
       4.1742245e-05 3.851434e-05 4.4086843e-05 4.3583936e-05
0001f0 f7 8f 28 38 c5 ab 22 38 f7 c4 25 38 3f 73 38 38
       4.01884e-05 3.8783783e-05 3.9522503e-05 4.397635e-05

onnx::DequantizeLinear_332 i1 [128, 128, 3, 3]
000000 36 e4 6e dc 1e 28 aa 06 e9 1b 92 c5 0b 1d 17 cf
       54 -28 110 -36 30 40 -86 6 -23 27 -110 -59 11 29 23 -49
000010 e7 23 b9 b2 bf b7 c1 1d 34 04 21 57 33 e6 27 05
       -25 35 -71 -78 -65 -73 -63 29 52 4 33 87 51 -26 39 5
000020 05 f9 db 01 57 24 0f 44 e3 f4 00 fe 3b 1c 27 25
       5 -7 -37 1 87 36 15 68 -29 -12 0 -2 59 28 39 37
000030 20 ee 40 25 d9 d1 23 e6 03 ed 28 a8 09 47 34 1a
       32 -18 64 37 -39 -47 35 -26 3 -19 40 -88 9 71 52 26
000040 1f f3 3a e0 e7 f0 21 fc 0d d0 5d d5 01 02 33 c6
       31 -13 58 -32 -25 -16 33 -4 13 -48 93 -43 1 2 51 -58
000050 2d 13 00 17 f6 ef f8 e9 12 bb 11 0b cb 2a fc 04
       45 19 0 23 -10 -17 -8 -23 18 -69 17 11 -53 42 -4 4
000060 ee 08 39 f7 f2 24 d1 d6 dc c1 c5 c7 24 08 3f 13
       -18 8 57 -9 -14 36 -47 -42 -36 -63 -59 -57 36 8 63 19
000070 17 4d 09 ae 19 19 34 1a e3 eb d2 1f 4e 51 f1 1e
       23 77 9 -82 25 25 52 26 -29 -21 -46 31 78 81 -15 30
000080 c8 13 35 08 11 02 f2 19 52 47 ff c4 c4 e6 54 51
       -56 19 53 8 17 2 -14 25 82 71 -1 -60 -60 -26 84 81
000090 12 32 05 d8 e4 33 3e cc 29 b3 25 1d 44 23 ca 2e
       18 50 5 -40 -28 51 62 -52 41 -77 37 29 68 35 -54 46
0000a0 e6 10 9d bd b9 e9 4b 33 e7 ef 1b b4 0f 2b ba ca
       -26 16 -99 -67 -71 -23 75 51 -25 -17 27 -76 15 43 -70 -54
0000b0 18 22 08 c4 eb 0a 0a 19 42 50 3f cb e7 af 1c 0e
       24 34 8 -60 -21 10 10 25 66 80 63 -53 -25 -81 28 14
0000c0 f2 f8 ab c3 d7 ca b8 d6 ec 32 38 e2 ca 25 38 3d
       -14 -8 -85 -61 -41 -54 -72 -42 -20 50 56 -30 -54 37 56 61
0000d0 34 09 e5 f0 53 cf f7 4a 2b 20 47 06 61 1c 03 21
       52 9 -27 -16 83 -49 -9 74 43 32 71 6 97 28 3 33
0000e0 f6 d4 da 21 b4 0a f5 56 be b6 52 f1 c0 f5 e8 2b
       -10 -44 -38 33 -76 10 -11 86 -66 -74 82 -15 -64 -11 -24 43
0000f0 e3 e8 a6 f8 aa a8 ca fc cb 06 00 cd e6 1e f1 da
       -29 -24 -90 -8 -86 -88 -54 -4 -53 6 0 -51 -26 30 -15 -38

onnx::DequantizeLinear_333 f4 [128]
000000 df f2 9d 3a b5 42 96 3a ab 54 8a 3a bf 16 9a 3a
       0.0012050531 0.0011463972 0.0010553797 0.0011756046
000010 30 77 96 3a 61 f7 99 3a 2e 08 87 3a c0 ad 86 3a
       0.0011479612 0.0011746698 0.001030212 0.001027517
000020 5f ac 92 3a f6 60 82 3a b9 21 88 3a 3a 86 aa 3a
       0.0011190287 0.000994711 0.0010386027 0.0013009973
000030 2f 94 82 3a 69 bd 97 3a 33 bf 93 3a 31 41 8a 3a
       0.0009962375 0.0011576834 0.0011272192 0.0010547993
000040 30 e5 9c 3a 29 44 a0 3a e6 bc 7b 3a 0f 96 82 3a
       0.0011970159 0.0012227345 0.0009603038 0.0009962934
000050 31 5f 88 3a 8a f5 90 3a 34 0c 9d 3a 05 ea 94 3a
       0.0010404346 0.0011059504 0.0011981786 0.0011361247
000060 ce 9e 93 3a 91 76 8c 3a 74 03 94 3a f7 5d 91 3a
       0.0011262537 0.0010716488 0.0011292533 0.0011090626
000070 39 3d 92 3a f1 94 8a 3a 5f 89 8c 3a 03 98 83 3a
       0.0011157162 0.0010572952 0.0010722092 0.001003981
000080 7d 5b 94 3a 66 43 7c 3a de 63 8a 3a 13 eb 8c 3a
       0.001131877 0.000962308 0.0010558327 0.001075121
000090 20 cb 8c 3a 7a 86 84 3a 56 0c a1 3a ca 89 8f 3a
       0.0010741688 0.0010110878 0.0012287002 0.0010951099
0000a0 91 d8 96 3a 1d ee 8d 3a 75 a6 91 3a e4 ca 95 3a
       0.0011508634 0.001082841 0.001111223 0.0011428264
0000b0 74 1c 93 3a 3f 4b 8d 3a aa 95 9b 3a f3 7b 8a 3a
       0.001122369 0.0010779871 0.0011870165 0.0010565504
0000c0 a3 5a 97 3a 8c b3 8a 3a 49 21 8b 3a 00 e5 98 3a
       0.0011547398 0.0010582074 0.0010614778 0.0011664927
0000d0 cf fa 8b 3a 93 a8 aa 3a 6e b1 89 3a 3d 76 80 3a
       0.0010679605 0.001302021 0.0010505149 0.0009800863
0000e0 18 ec 8d 3a 79 75 97 3a cf c0 8f 3a 44 c0 99 3a
       0.0010827808 0.0011555395 0.0010967496 0.0011730273
0000f0 da 6e 89 3a 61 f1 87 3a e5 c8 81 3a 0e f6 a8 3a
       0.0010485307 0.0010371619 0.000990179 0.0012890713
000100 38 11 96 3a 2a db 88 3a d5 c9 8f 3a 49 18 8e 3a
       0.0011449223 0.0010441293 0.0010970185 0.0010840978
000110 82 51 70 3a ff d5 9c 3a 62 a0 74 3a 5c 03 8b 3a
       0.0009167419 0.0011965631 0.000933176 0.001060586
000120 2f 80 81 3a 3d 89 8e 3a b8 94 a1 3a a1 75 91 3a
       0.0009880121 0.001087464 0.0012327647 0.0011097678
000130 ca f1 9a 3a 3b b8 90 3a 01 0f ac 3a 36 96 89 3a
       0.0011821326 0.0011041233 0.001312703 0.0010497037
000140 b1 7c ad 3a 9f 50 7e 3a 5a 1e 86 3a 49 b3 8f 3a
       0.0013236013 0.00097013445 0.0010232434 0.0010963465
000150 d9 d6 aa 3a d3 1e 7c 3a 42 65 97 3a 06 3b 99 3a
       0.0013034 0.000961763 0.0011550563 0.0011690564
000160 de 48 8e 3a 68 e0 94 3a a4 3d 97 3a bd fb 81 3a
       0.0010855456 0.0011358382 0.0011538756 0.0009916943
000170 2f c7 91 3a f5 95 92 3a 39 d0 93 3a 4a 01 86 3a
       0.0011121983 0.0011183607 0.0011277265 0.0010223773
000180 bf 0b a3 3a 21 c5 8a 3a 96 01 8a 3a de 82 8f 3a
       0.0012439414 0.0010587313 0.0010529037 0.0010949036
000190 70 0e 6d 3a ef 0d 85 3a 9f 4f 9c 3a cd 76 88 3a
       0.0009042984 0.0010151247 0.0011925584 0.0010411382
0001a0 04 fa 8f 3a 62 90 90 3a 70 dd 9a 3a ec 70 a9 3a
       0.0010984545 0.0011029358 0.0011815261 0.001292733
0001b0 72 35 85 3a 41 bf 99 3a 99 15 97 3a 7e 50 8c 3a
       0.0010163023 0.0011729972 0.0011526822 0.0010705141
0001c0 6a 84 8a 3a 99 14 a2 3a e7 ab 8d 3a 07 d9 87 3a
       0.0010568027 0.0012365758 0.0010808677 0.0010364362
0001d0 d5 97 84 3a f3 03 9a 3a 93 4e 86 3a 58 59 84 3a
       0.001011605 0.0011750445 0.0010246806 0.0010097427
0001e0 04 58 8c 3a 3a d1 97 3a 40 db 89 3a f6 b8 83 3a
       0.0010707383 0.001158274 0.0010517612 0.001004963
0001f0 2e ee 8a 3a 27 c6 9d 3a 2d 81 96 3a 0a d4 a5 3a
       0.0010599548 0.0012037203 0.0011482589 0.0012651694

onnx::DequantizeLinear_340 f4 [128]
000000 54 72 3c 38 23 46 33 38 67 0a 25 38 69 d7 37 38
       4.492917e-05 4.2742246e-05 3.9348753e-05 4.3831216e-05
000010 c0 84 33 38 fc b1 37 38 da 1a 21 38 f7 ae 20 38
       4.280056e-05 4.379636e-05 3.84104e-05 3.830992e-05
000020 7b fe 2e 38 a0 8d 1b 38 c2 6a 22 38 4d 73 4b 38
       4.1721836e-05 3.708678e-05 3.8723236e-05 4.8506354e-05
000030 bd ca 1b 38 f6 09 35 38 60 46 30 38 2a f3 24 38
       3.7143694e-05 4.316304e-05 4.202721e-05 3.932711e-05
000040 92 30 3b 38 2c 36 3f 38 31 2c 16 38 fa cc 1b 38
       4.462951e-05 4.55884e-05 3.5803943e-05 3.714578e-05
000050 19 b4 22 38 eb f2 2c 38 1f 5f 3b 38 e5 aa 31 38
       3.879154e-05 4.123423e-05 4.4672863e-05 4.2359246e-05
000060 ba 1f 30 38 b5 95 27 38 cf 97 30 38 82 6f 2d 38
       4.1991218e-05 3.995533e-05 4.2103053e-05 4.1350264e-05
000070 df 79 2e 38 16 57 25 38 24 ac 27 38 bc 00 1d 38
       4.1598334e-05 3.942017e-05 3.997622e-05 3.74324e-05
000080 d8 00 31 38 6d 7c 16 38 89 1c 25 38 b6 20 28 38
       4.2200874e-05 3.5878667e-05 3.936564e-05 4.0084786e-05
000090 98 fa 27 38 3f 1d 1e 38 00 25 40 38 ee 40 2b 38
       4.0049286e-05 3.7697373e-05 4.5810826e-05 4.0830048e-05
0000a0 ef f8 33 38 c4 55 29 38 ff c5 2d 38 2f b7 32 38
       4.2908763e-05 4.0372615e-05 4.1430812e-05 4.260911e-05
0000b0 35 84 2f 38 74 93 28 38 43 a0 39 38 44 39 25 38
       4.184638e-05 4.0191648e-05 4.4256692e-05 3.93924e-05
0000c0 1e 94 34 38 9a 7b 25 38 87 fe 25 38 a0 6a 36 38
       4.305329e-05 3.945418e-05 3.9576113e-05 4.3491484e-05
0000d0 0d 02 27 38 48 9c 4b 38 a5 47 24 38 27 44 19 38
       3.9817813e-05 4.854452e-05 3.916737e-05 3.6541514e-05
0000e0 5b 53 29 38 22 b4 34 38 93 82 2b 38 3b 70 37 38
       4.037037e-05 4.3083106e-05 4.0891184e-05 4.3735123e-05
0000f0 36 f8 23 38 15 31 22 38 32 d8 1a 38 dc 95 49 38
       3.9093393e-05 3.866952e-05 3.691781e-05 4.80617e-05
000100 18 0b 33 38 02 48 23 38 57 8d 2b 38 15 88 29 38
       4.2687258e-05 3.892929e-05 4.090121e-05 4.0419476e-05
000110 43 5c 0f 38 72 1e 3b 38 2d ee 11 38 d3 da 25 38
       3.4179782e-05 4.461263e-05 3.4792512e-05 3.954286e-05
000120 72 81 1a 38 d8 0e 2a 38 b8 c7 40 38 bd 8b 2d 38
       3.6837017e-05 4.0544983e-05 4.596237e-05 4.1376556e-05
000130 bf dc 38 38 c5 a9 2c 38 eb 47 4d 38 2b 27 24 38
       4.4074604e-05 4.1166106e-05 4.8942788e-05 3.9137125e-05
000140 37 fc 4e 38 bf b5 17 38 e0 03 20 38 71 72 2b 38
       4.934912e-05 3.617047e-05 3.815058e-05 4.087616e-05
000150 7d d3 4b 38 9c 66 16 38 ca a0 34 38 43 d1 36 38
       4.8595935e-05 3.585835e-05 4.306509e-05 4.358707e-05
000160 0b c2 29 38 6d 9f 31 38 86 71 34 38 dc 14 1b 38
       4.0473456e-05 4.2348565e-05 4.302107e-05 3.6974307e-05
000170 0a ed 2d 38 bd e3 2e 38 b0 5a 30 38 34 e1 1f 38
       4.1467174e-05 4.169693e-05 4.204613e-05 3.811829e-05
000180 28 87 42 38 94 90 25 38 47 a7 24 38 ac 38 2b 38
       4.637908e-05 3.9473714e-05 3.9256436e-05 4.0822357e-05
000190 1b 6a 0d 38 dc be 1e 38 20 7e 3a 38 44 d0 22 38
       3.3715838e-05 3.7847887e-05 4.446332e-05 3.8817772e-05
0001a0 d4 c6 2b 38 3b 7a 2c 38 77 c4 38 38 73 28 4a 38
       4.095475e-05 4.112183e-05 4.405199e-05 4.8198224e-05
0001b0 00 ee 1e 38 06 6f 37 38 bf 41 34 38 48 68 27 38
       3.789179e-05 4.3734e-05 4.2976575e-05 3.9913022e-05
0001c0 5e 43 25 38 4a 60 41 38 c5 06 29 38 07 14 22 38
       3.9401806e-05 4.6104462e-05 4.0299044e-05 3.864246e-05
0001d0 f4 31 1e 38 fb c0 37 38 69 3d 20 38 66 e7 1d 38
       3.7716658e-05 4.3810327e-05 3.8204165e-05 3.7647224e-05
0001e0 42 71 27 38 9b 21 35 38 8a 79 24 38 0c 28 1d 38
       3.9921382e-05 4.318506e-05 3.921384e-05 3.7469013e-05
0001f0 8e c1 25 38 f9 3c 3c 38 ab 90 33 38 fc d8 45 38
       3.9519327e-05 4.4879478e-05 4.281166e-05 4.7170543e-05

onnx::DequantizeLinear_349 i1 [128, 2048]
000000 3d 27 d4 c3 07 5b bf f9 c2 2b 0b 14 50 15 f1 57
       61 39 -44 -61 7 91 -65 -7 -62 43 11 20 80 21 -15 87
000010 dd 41 2f ce 41 2a ee f9 b8 cd 93 52 41 c7 eb 03
       -35 65 47 -50 65 42 -18 -7 -72 -51 -109 82 65 -57 -21 3
000020 ec 45 f1 d3 c3 05 c8 3e d6 3a 33 24 0a 4e 32 14
       -20 69 -15 -45 -61 5 -56 62 -42 58 51 36 10 78 50 20
000030 03 b6 3f e7 e5 3b 3a 1f 31 38 9f 06 35 b4 d1 fa
       3 -74 63 -25 -27 59 58 31 49 56 -97 6 53 -76 -47 -6
000040 06 e1 4e 50 00 31 46 0e 51 c1 ca 32 cf fe c7 d0
       6 -31 78 80 0 49 70 14 81 -63 -54 50 -49 -2 -57 -48
000050 08 5f be e8 35 4a f8 e3 e9 1d e6 f0 cc 43 dc 21
       8 95 -66 -24 53 74 -8 -29 -23 29 -26 -16 -52 67 -36 33
000060 07 16 13 b6 dc 1a bf bb 51 20 d1 e1 ca 29 20 f3
       7 22 19 -74 -36 26 -65 -69 81 32 -47 -31 -54 41 32 -13
000070 2a 06 1f 15 d2 db f5 58 e5 40 c2 aa ca ba 04 ef
       42 6 31 21 -46 -37 -11 88 -27 64 -62 -86 -54 -70 4 -17
000080 bf 1d 28 e8 f8 e2 c1 bb 23 bf 4c 37 43 c4 43 2f
       -65 29 40 -24 -8 -30 -63 -69 35 -65 76 55 67 -60 67 47
000090 dd f4 0e fb 11 d9 0b 36 94 30 d4 2d c7 01 a3 fc
       -35 -12 14 -5 17 -39 11 54 -108 48 -44 45 -57 1 -93 -4
0000a0 eb 15 2a cc 28 c4 ec 07 bb 2f c5 ea 1f 9a b7 39
       -21 21 42 -52 40 -60 -20 7 -69 47 -59 -22 31 -102 -73 57
0000b0 48 1d 0d f3 d6 fc fa d9 5b d5 08 3a 21 a4 0a 3c
       72 29 13 -13 -42 -4 -6 -39 91 -43 8 58 33 -92 10 60
0000c0 ce 2d d2 26 ef 48 b9 f0 be ea 22 f1 21 fe 2a 3f
       -50 45 -46 38 -17 72 -71 -16 -66 -22 34 -15 33 -2 42 63
0000d0 db e7 d0 0b cb 06 ff 18 bf 23 2e 57 26 6f 02 0a
       -37 -25 -48 11 -53 6 -1 24 -65 35 46 87 38 111 2 10
0000e0 43 3f 5c 26 22 25 ee e1 9f 54 47 02 2a ec ea 33
       67 63 92 38 34 37 -18 -31 -97 84 71 2 42 -20 -22 51
0000f0 26 3a 2d e8 17 b6 c0 47 2b 1e e2 35 31 f8 e4 55
       38 58 45 -24 23 -74 -64 71 43 30 -30 53 49 -8 -28 85

onnx::DequantizeLinear_350 f4 [128]
000000 2e 04 95 39 e5 dd a9 39 e2 5d c8 39 9f 9a 9f 39
       0.0002842261 0.00032399516 0.0003821692 0.00030442045
000010 1c 4b 8c 39 a0 a7 92 39 4d d1 b4 39 42 01 9f 39
       0.00026758842 0.0002797218 0.00034488217 0.0003032778
000020 8e 8e 9b 39 ee 83 6d 39 5f 56 91 39 29 a9 a4 39
       0.00029670115 0.00022651229 0.00027720907 0.00031406552
000030 cd 80 9a 39 5f 33 83 39 f4 6e 99 39 96 3c 97 39
       0.00029469133 0.00025024542 0.000292651 0.00028846104
000040 de 26 9b 39 b6 10 a2 39 c4 97 87 39 ff a7 9c 39
       0.00029592862 0.00030911498 0.0002586228 0.00029879806
000050 b9 78 b4 39 92 03 a6 39 9f 17 78 39 0d 1d a6 39
       0.0003442222 0.00031664647 0.00023659923 0.00031683632
000060 7c e6 a7 39 63 5d 9c 39 17 b8 94 39 a0 ad 96 39
       0.00032024446 0.00029824217 0.00028365917 0.0002873959
000070 82 2b bb 39 ef b7 a2 39 43 8b 99 39 8b 3a 9d 39
       0.00035699835 0.0003103609 0.00029286192 0.0002998899
000080 b1 8e 96 39 71 e6 89 39 6f 52 93 39 22 16 8f 39
       0.00028716543 0.00026302368 0.00028099443 0.00027291576
000090 4c 45 8b 39 90 61 7d 39 90 8a a3 39 c6 a6 9d 39
       0.00026563776 0.00024164305 0.0003119302 0.0003006963
0000a0 b0 b2 ab 39 54 a9 b5 39 e3 92 90 39 98 0d 9e 39
       0.00032748794 0.0003464917 0.0002757526 0.00030146237
0000b0 d0 45 91 39 4b a1 b4 39 bd 55 93 39 c9 5c 8c 39
       0.0002770857 0.00034452448 0.00028101905 0.0002677201
0000c0 4c ea 92 39 bf 06 95 39 f3 34 bc 39 53 91 96 39
       0.00028021855 0.0002842452 0.00035897605 0.00028718504
0000d0 2d c0 95 39 f6 65 93 39 3d d4 9a 39 b3 08 af 39
       0.00028562677 0.00028113992 0.000295313 0.00033385082
0000e0 46 02 9d 39 cb ad a2 39 91 69 ad 39 fa 68 ab 39
       0.00029947067 0.00031028534 0.00033075784 0.00032693875
0000f0 e5 9e 9d 39 8c 0f 9f 39 74 65 ae 39 ef d6 64 39
       0.0003006376 0.00030338427 0.00033263455 0.00021823843
000100 2e 71 90 39 f8 40 aa 39 c9 36 9f 39 58 63 af 39
       0.00027550146 0.00032473332 0.0003036766 0.00033452618
000110 72 f4 97 39 46 70 9f 39 0f 82 73 39 e1 a9 9c 39
       0.0002898309 0.00030410493 0.00023222736 0.00029881208
000120 d8 72 8f 39 82 fb 8d 39 d7 74 af 39 2f 33 a5 39
       0.0002736065 0.00027081004 0.00033465654 0.00031509387
000130 16 fb ba 39 58 cb b7 39 d4 3b bf 39 d8 27 a0 39
       0.00035663758 0.00035055983 0.00036474934 0.00030547264
000140 84 1e 9f 39 ce 50 92 39 c6 5f a8 39 f3 1f a0 39
       0.0003034958 0.00027907494 0.00032114814 0.00030541382
000150 f1 12 b3 39 a5 49 8f 39 59 b7 a5 39 89 34 aa 39
       0.00034155653 0.00027329955 0.00031607857 0.00032464068
000160 12 8a a5 39 a1 54 bb 39 ad 3a c0 39 7a 64 d9 39
       0.00031574123 0.00035730473 0.0003666481 0.00041464326
000170 2a 9d 87 39 23 d5 a7 39 63 ae ac 39 58 3d 8b 39
       0.00025866303 0.0003201152 0.00032936325 0.0002655785
000180 82 48 8b 39 50 bf 9a 39 b0 73 a0 39 4c eb ad 39
       0.00026566169 0.00029515708 0.00030603772 0.0003317244
000190 47 47 90 39 9c 36 67 39 7c f5 a8 39 0e c6 a1 39
       0.00027518926 0.0002205022 0.00032226357 0.00030855875
0001a0 2e ad a7 39 2d 8c b8 39 a3 68 92 39 d1 e2 84 39
       0.0003198175 0.00035199654 0.0002792525 0.00025345993
0001b0 1a 78 9f 39 ed 35 a2 39 b2 65 c5 39 d1 5a 97 39
       0.00030416326 0.00030939226 0.00037650537 0.00028868628
0001c0 af a5 a6 39 ce 03 95 39 c3 9e 85 39 09 97 94 39
       0.0003178543 0.0002842233 0.00025486024 0.0002834129
0001d0 a0 6f 9c 39 4e 39 8b 39 6f 75 a9 39 ec 81 75 39
       0.00029837806 0.0002655484 0.00032321687 0.0002341342
0001e0 a8 c4 95 39 ee b8 99 39 66 49 ae 39 b9 5d 9f 39
       0.00028566015 0.00029320217 0.00033242552 0.00030396672
0001f0 69 a3 b5 39 4f 80 9f 39 f3 0c a6 39 ce f2 8d 39
       0.0003464476 0.0003042244 0.00031671635 0.0002707452

onnx::DequantizeLinear_357 f4 [128]
000000 65 e9 63 37 8f e6 81 37 7d 39 99 37 db 1a 74 37
       1.3584596e-05 1.548536e-05 1.8265791e-05 1.4549786e-05
000010 0c 92 56 37 c4 4c 60 37 61 46 8a 37 4c 30 73 37
       1.2789398e-05 1.3369314e-05 1.6483655e-05 1.4495174e-05
000020 41 ea 6d 37 04 a2 35 37 f4 48 5e 37 c7 d6 7b 37
       1.4180842e-05 1.0826163e-05 1.3249217e-05 1.5010773e-05
000030 ae 4d 6c 37 e8 a9 48 37 d9 aa 6a 37 bd 4e 67 37
       1.4084782e-05 1.1960488e-05 1.3987265e-05 1.3787006e-05
000040 ab 4b 6d 37 8a de 77 37 9a 61 4f 37 b3 98 6f 37
       1.4143919e-05 1.4774161e-05 1.2360886e-05 1.4281063e-05
000050 a4 02 8a 37 97 e8 7d 37 a4 b8 3d 37 90 0f 7e 37
       1.6452112e-05 1.5134129e-05 1.1308268e-05 1.5143203e-05
000060 97 65 80 37 97 26 6f 37 05 75 63 37 17 74 66 37
       1.5306096e-05 1.4254495e-05 1.35575e-05 1.3736098e-05
000070 f9 21 8f 37 4c de 78 37 24 d6 6a 37 d6 78 70 37
       1.7062748e-05 1.4833709e-05 1.3997345e-05 1.4333249e-05
000080 c7 44 66 37 01 e9 52 37 01 52 61 37 a2 d7 5a 37
       1.3725082e-05 1.2571226e-05 1.3430138e-05 1.30440185e-05
000090 9e 01 55 37 07 c4 41 37 71 20 7a 37 5e 1e 71 37
       1.2696166e-05 1.1549338e-05 1.4908715e-05 1.437179e-05
0000a0 0e 4d 83 37 95 eb 8a 37 f9 1d 5d 37 a0 bb 71 37
       1.5652298e-05 1.6560583e-05 1.3179605e-05 1.4408404e-05
0000b0 a1 2f 5e 37 ab 21 8a 37 0f 57 61 37 14 ad 56 37
       1.3243321e-05 1.646656e-05 1.3431315e-05 1.2795692e-05
0000c0 bc b2 60 37 52 ed 63 37 f6 ec 8f 37 ce 48 66 37
       1.3393055e-05 1.358551e-05 1.7157272e-05 1.37260195e-05
0000d0 ec 08 65 37 df 6f 61 37 4b cd 6c 37 22 da 85 37
       1.3651541e-05 1.3437092e-05 1.4114495e-05 1.5956412e-05
0000e0 c6 22 70 37 ca ce 78 37 ac 9c 84 37 af 14 83 37
       1.4313211e-05 1.4830099e-05 1.5808582e-05 1.5626048e-05
0000f0 51 12 71 37 26 46 73 37 4c 5d 85 37 93 ff 2e 37
       1.4368984e-05 1.4500261e-05 1.589828e-05 1.0430714e-05
000100 6b ea 5c 37 52 32 82 37 29 82 73 37 74 1f 86 37
       1.31676015e-05 1.552064e-05 1.4514234e-05 1.5988691e-05
000110 f1 67 68 37 16 da 73 37 32 37 3a 37 95 9b 6f 37
       1.3852478e-05 1.4534706e-05 1.1099315e-05 1.4281734e-05
000120 6d 65 5b 37 5f 27 59 37 d5 2c 86 37 e0 a9 7c 37
       1.3077032e-05 1.2943375e-05 1.5994921e-05 1.5059923e-05
000130 f2 fc 8e 37 21 8d 8c 37 87 3d 92 37 d9 f2 74 37
       1.7045506e-05 1.6755019e-05 1.7433207e-05 1.4600076e-05
000140 0b 5d 73 37 fa c7 5f 37 57 c2 80 37 c6 e6 74 37
       1.4505592e-05 1.33383965e-05 1.5349286e-05 1.4597264e-05
000150 0a f1 88 37 6a 26 5b 37 03 74 7d 37 d0 28 82 37
       1.6324706e-05 1.3062361e-05 1.5106986e-05 1.5516212e-05
000160 c3 2e 7d 37 6c 41 8f 37 6a 00 93 37 98 3e a6 37
       1.5090863e-05 1.7077393e-05 1.7523958e-05 1.981789e-05
000170 dc 69 4f 37 53 58 80 37 88 0d 84 37 74 f5 54 37
       1.2362809e-05 1.5299918e-05 1.5741927e-05 1.2693334e-05
000180 87 06 55 37 4a ad 6c 37 d8 66 75 37 e1 ff 84 37
       1.2697309e-05 1.4107043e-05 1.4627083e-05 1.585478e-05
000190 55 aa 5c 37 47 d0 30 37 d4 34 81 37 5c 6c 77 37
       1.315268e-05 1.0538911e-05 1.5402598e-05 1.4747577e-05
0001a0 c4 39 80 37 98 20 8d 37 6d ec 5f 37 c7 3d 4b 37
       1.5285688e-05 1.6823687e-05 1.3346883e-05 1.2114127e-05
0001b0 0f e6 73 37 75 17 78 37 28 f4 96 37 f9 7c 67 37
       1.4537493e-05 1.4787413e-05 1.7995088e-05 1.379777e-05
0001c0 88 e0 7e 37 d2 e8 63 37 3a 5d 4c 37 77 42 63 37
       1.51918575e-05 1.3584462e-05 1.21810535e-05 1.3545729e-05
0001d0 7c 42 6f 37 47 ef 54 37 ad 96 81 37 a1 be 3b 37
       1.426099e-05 1.2691896e-05 1.5448162e-05 1.1190453e-05
0001e0 c7 0f 65 37 fd 1b 6b 37 d8 47 85 37 b7 bd 73 37
       1.3653137e-05 1.4013608e-05 1.588829e-05 1.45281e-05
0001f0 0e e7 8a 37 9d f2 73 37 ef f6 7d 37 10 1a 59 37
       1.6558475e-05 1.45404165e-05 1.5137469e-05 1.2940276e-05

onnx::DequantizeLinear_362 i1 [10, 128]
000000 37 ee 8e 3d 02 d5 6e bd f3 2c b9 b4 49 12 ba db
       55 -18 -114 61 2 -43 110 -67 -13 44 -71 -76 73 18 -70 -37
000010 b6 19 3c 25 6c 3b 58 16 f3 30 39 d4 f9 ee 50 d9
       -74 25 60 37 108 59 88 22 -13 48 57 -44 -7 -18 80 -39
000020 64 59 4a c5 ce 29 87 2a ba dc 4c a3 b4 fa bb b0
       100 89 74 -59 -50 41 -121 42 -70 -36 76 -93 -76 -6 -69 -80
000030 30 b6 12 21 8f 41 a5 6e b5 69 49 49 dd d7 c4 f3
       48 -74 18 33 -113 65 -91 110 -75 105 73 73 -35 -41 -60 -13
000040 ac 4e cd c0 23 b3 ef f2 19 48 21 02 ec 65 48 7f
       -84 78 -51 -64 35 -77 -17 -14 25 72 33 2 -20 101 72 127
000050 40 cb 58 ec 02 ea c9 5b b3 cf be a6 01 b4 15 37
       64 -53 88 -20 2 -22 -55 91 -77 -49 -66 -90 1 -76 21 55
000060 96 4b 2b f4 b4 e7 b3 23 d4 56 d2 a4 56 71 92 4c
       -106 75 43 -12 -76 -25 -77 35 -44 86 -46 -92 86 113 -110 76
000070 73 d9 b4 cd 45 3a bb 38 4a e9 5d 56 a8 0a 97 a5
       115 -39 -76 -51 69 58 -69 56 74 -23 93 86 -88 10 -105 -91
000080 e0 d8 07 c6 d2 04 ad ce 3d 2d ed cb 46 c8 90 1f
       -32 -40 7 -58 -46 4 -83 -50 61 45 -19 -53 70 -56 -112 31
000090 23 95 db 54 96 be 14 1c 65 2d c6 cb 64 11 a9 21
       35 -107 -37 84 -106 -66 20 28 101 45 -58 -53 100 17 -87 33
0000a0 cb cc df 19 aa 47 db d4 a8 b0 18 0d 50 28 45 f0
       -53 -52 -33 25 -86 71 -37 -44 -88 -80 24 13 80 40 69 -16
0000b0 bf 6b f7 cb f0 0f 4f 3f 31 1a 23 53 9f bd 1b 26
       -65 107 -9 -53 -16 15 79 63 49 26 35 83 -97 -67 27 38
0000c0 54 a9 1e 26 09 23 01 00 2f 0a 41 9f 67 20 f0 af
       84 -87 30 38 9 35 1 0 47 10 65 -97 103 32 -16 -81
0000d0 b1 ef 12 a1 ec 11 7f 1e 90 8e e0 b8 26 55 db 2a
       -79 -17 18 -95 -20 17 127 30 -112 -114 -32 -72 38 85 -37 42
0000e0 13 20 a3 af 5c 09 0e 54 c9 09 00 23 38 2a f3 10
       19 32 -93 -81 92 9 14 84 -55 9 0 35 56 42 -13 16
0000f0 c9 e2 4b 33 5c e7 9a 19 30 21 bd ba f1 fa b0 ed
       -55 -30 75 51 92 -25 -102 25 48 33 -67 -70 -15 -6 -80 -19

onnx::DequantizeLinear_363 f4 [10]
000000 b2 7c ba 3a 33 03 d3 3a 0e e7 c3 3a d7 e5 cb 3a
       0.0014227836 0.0016098976 0.0014946179 0.0015556169
000010 52 f9 d4 3a 39 a1 bf 3a 0e 15 c2 3a f3 7e c3 3a
       0.001624862 0.0014620192 0.00148073 0.0014915153
000020 0d 38 c2 3a 02 43 cf 3a
       0.001481773 0.0015812817

onnx::DequantizeLinear_364 i1 [10]
000000 00 00 00 00 00 00 00 00 00 00
       0 0 0 0 0 0 0 0 0 0
