quant_cifar10.onnx (onnx, 884595 bytes, 28 tensors)

onnx::DequantizeLinear_263 i1 [32, 3, 3, 3]
0	0xcd	-51
1	0x30	48
2	0x00	0
3	0x42	66
4	0x1f	31
5	0x0b	11
6	0xe3	-29
7	0x03	3
8	0xc7	-57
9	0xb8	-72
10	0xf0	-16
11	0xec	-20
12	0x27	39
13	0x5f	95
14	0x90	-112
15	0xd3	-45
16	0x22	34
17	0x49	73
18	0xe1	-31
19	0x5b	91
20	0xec	-20
21	0x14	20
22	0x7f	127
23	0x92	-110
24	0xce	-50
25	0xf0	-16
26	0xe8	-24
27	0x5c	92
28	0xba	-70
29	0xc2	-62
30	0xaf	-81
31	0x9d	-99
32	0xb7	-73
33	0x7f	127
34	0x6b	107
35	0x52	82
36	0x1c	28
37	0xeb	-21
38	0x29	41
39	0x93	-109
40	0xba	-70
41	0xc3	-61
42	0x45	69
43	0x5c	92
44	0xce	-50
45	0xfd	-3
46	0x51	81
47	0x6b	107
48	0x07	7
49	0xfe	-2
50	0x32	50
51	0xa3	-93
52	0x16	22
53	0x98	-104
54	0x90	-112
55	0xb7	-73
56	0x39	57
57	0x2a	42
58	0xb7	-73
59	0x37	55
60	0x36	54
61	0xef	-17
62	0x05	5
63	0x06	6
64	0x44	68
65	0x77	119
66	0x95	-107
67	0xcc	-52
68	0x3c	60
69	0x56	86
70	0x65	101
71	0x68	104
72	0x0f	15
73	0x93	-109
74	0x11	17
75	0xaf	-81
76	0x8a	-118
77	0x7f	127
78	0x58	88
79	0x83	-125
80	0x19	25
81	0xe9	-23
82	0xf1	-15
83	0xdd	-35
84	0x33	51
85	0xb6	-74
86	0x2e	46
87	0x44	68
88	0x56	86
89	0x29	41
90	0x80	-128
91	0xae	-82
92	0x51	81
93	0x1a	26
94	0x99	-103
95	0xb9	-71
96	0x7d	125
97	0x52	82
98	0xc9	-55
99	0xe4	-28
100	0x93	-109
101	0x1c	28
102	0xa8	-88
103	0xa3	-93
104	0x06	6
105	0x21	33
106	0xd2	-46
107	0x51	81
108	0xbe	-66
109	0x7f	127
110	0x6a	106
111	0x96	-106
112	0xe0	-32
113	0x0d	13
114	0x09	9
115	0x13	19
116	0x37	55
117	0x12	18
118	0xce	-50
119	0x45	69
120	0x91	-111
121	0xb2	-78
122	0xdb	-37
123	0xcf	-49
124	0xd3	-45
125	0xa2	-94
126	0xfb	-5
127	0x2e	46
128	0xb8	-72
129	0x0c	12
130	0x5e	94
131	0xec	-20
132	0x14	20
133	0xf7	-9
134	0x18	24
135	0x52	82
136	0x7b	123
137	0x4d	77
138	0x75	117
139	0xf6	-10
140	0x88	-120
141	0xc0	-64
142	0x5a	90
143	0xfc	-4
144	0xc3	-61
145	0x9a	-102
146	0x80	-128
147	0x8e	-114
148	0xe0	-32
149	0x3f	63
150	0x44	68
151	0x86	-122
152	0x50	80
153	0xa2	-94
154	0xe9	-23
155	0xcf	-49
156	0xe0	-32
157	0xe3	-29
158	0x8d	-115
159	0x8d	-115
160	0xf0	-16
161	0x08	8
162	0xd7	-41
163	0x2f	47
164	0x9a	-102
165	0xfa	-6
166	0x67	103
167	0xc1	-63
168	0x59	89
169	0x23	35
170	0x80	-128
171	0x52	82
172	0xec	-20
173	0xb7	-73
174	0x61	97
175	0x9f	-97
176	0xe7	-25
177	0xe6	-26
178	0x4c	76
179	0xfc	-4
180	0x42	66
181	0x2a	42
182	0xda	-38
183	0xf1	-15
184	0xa9	-87
185	0x25	37
186	0x55	85
187	0x52	82
188	0x98	-104
189	0x11	17
190	0x9c	-100
191	0xb6	-74
192	0xb3	-77
193	0x36	54
194	0xb2	-78
195	0x0a	10
196	0x1f	31
197	0x65	101
198	0xa5	-91
199	0xa3	-93
200	0xba	-70
201	0x5e	94
202	0xde	-34
203	0x7f	127
204	0x39	57
205	0x2e	46
206	0x18	24
207	0xf0	-16
208	0x09	9
209	0xe5	-27
210	0xfe	-2
211	0x16	22
212	0x9f	-97
213	0xbd	-67
214	0x7e	126
215	0xa7	-89
216	0xf3	-13
217	0x78	120
218	0x2e	46
219	0x0a	10
220	0x9d	-99
221	0x35	53
222	0xba	-70
223	0xde	-34
224	0xdb	-37
225	0xec	-20
226	0x04	4
227	0x59	89
228	0x10	16
229	0x55	85
230	0x3b	59
231	0xbb	-69
232	0x24	36
233	0xac	-84
234	0xc6	-58
235	0x21	33
236	0x28	40
237	0x49	73
238	0xc9	-55
239	0xfc	-4
240	0x29	41
241	0x80	-128
242	0x4c	76
243	0xa4	-92
244	0xfe	-2
245	0xf9	-7
246	0xc5	-59
247	0x14	20
248	0x75	117
249	0xed	-19
250	0xb7	-73
251	0xdd	-35
252	0x80	-128
253	0x26	38
254	0xc6	-58
255	0xae	-82

onnx::DequantizeLinear_264 f4 [32]
0	0x3c962d35	0.018332103
1	0x3c78861d	0.015168694
2	0x3bf37be1	0.007430539
3	0x3bbe5c37	0.0058093327
4	0x3c171697	0.009221694
5	0x3b6be61c	0.003599531
6	0x3c0da010	0.008644119
7	0x3bef2731	0.007298373
8	0x3c1accf7	0.0094482815
9	0x3c0c4cce	0.008563234
10	0x3c042a64	0.008066747
11	0x3c177299	0.009243631
12	0x3b5bde76	0.0033549345
13	0x3c53e70e	0.012933506
14	0x3b66bc05	0.0035207283
15	0x3c94dccc	0.01817169
16	0x3c3fa402	0.011696817
17	0x3c349bf1	0.011023507
18	0x3bf86ee9	0.007581581
19	0x3be9800c	0.00712586
20	0x3c4f9854	0.012670595
21	0x3c20f2ae	0.009823484
22	0x3c3677ae	0.011136932
23	0x3c39462a	0.011308232
24	0x3c192fcb	0.009349774
25	0x3c885793	0.016643321
26	0x3c2f6912	0.010706203
27	0x3bf7c80f	0.0075616906
28	0x3c120255	0.008911689
29	0x3c96c561	0.018404664
30	0x3c09b69e	0.008405356
31	0x3bd151cd	0.0063879252

onnx::DequantizeLinear_265 i1 [32]
0	0x00	0
1	0x00	0
2	0x00	0
3	0x00	0
4	0x00	0
5	0x00	0
6	0x00	0
7	0x00	0
8	0x00	0
9	0x00	0
10	0x00	0
11	0x00	0
12	0x00	0
13	0x00	0
14	0x00	0
15	0x00	0
16	0x00	0
17	0x00	0
18	0x00	0
19	0x00	0
20	0x00	0
21	0x00	0
22	0x00	0
23	0x00	0
24	0x00	0
25	0x00	0
26	0x00	0
27	0x00	0
28	0x00	0
29	0x00	0
30	0x00	0
31	0x00	0

onnx::DequantizeLinear_271 f4 [32]
0	0x39974902	0.0002885536
1	0x397a5bc4	0.00023876043
2	0x38f54802	0.00011695923
3	0x38bfc3f4	9.144089e-05
4	0x3918341d	0.00014515263
5	0x386da3e7	5.665785e-05
6	0x390eabb4	0.0001360614
7	0x38f0eb23	0.000114878894
8	0x391bf181	0.00014871919
9	0x390d55f1	0.00013478824
10	0x39052427	0.00012697336
11	0x391890cd	0.00014549792
12	0x385d7df6	5.2807816e-05
13	0x39557780	0.0002035778
14	0x3868700e	5.541747e-05
15	0x3995f61d	0.00028602863
16	0x39410e2a	0.00018411191
17	0x3935f140	0.00017351378
18	0x38fa4464	0.00011933668
19	0x38eb394f	0.00011216348
20	0x395120a3	0.00019943951
21	0x392222d6	0.00015462501
22	0x3937d080	0.00017529912
23	0x393aa44a	0.00017799545
24	0x391a5148	0.00014716864
25	0x3989593b	0.00026197158
26	0x3930b48e	0.0001685193
27	0x38f99c4f	0.0001190236
28	0x39131641	0.00014027303
29	0x3997e24d	0.00028969572
30	0x390abadd	0.00013230318
31	0x38d2dd5e	0.00010054813

onnx::DequantizeLinear_276 i1 [32, 32, 3, 3]
0	0x34	52
1	0x1d	29
2	0xd5	-43
3	0x0d	13
4	0x80	-128
5	0xfa	-6
6	0xde	-34
7	0x12	18
8	0x66	102
9	0x16	22
10	0xab	-85
11	0x11	17
12	0xd2	-46
13	0xf2	-14
14	0xd6	-42
15	0x33	51
16	0x0f	15
17	0xe8	-24
18	0x1c	28
19	0xd1	-47
20	0xfd	-3
21	0x35	53
22	0xe3	-29
23	0x28	40
24	0x14	20
25	0x32	50
26	0xba	-70
27	0x16	22
28	0xb5	-75
29	0xfd	-3
30	0x08	8
31	0x11	17
32	0x30	48
33	0x37	55
34	0x3e	62
35	0x23	35
36	0x2d	45
37	0xf5	-11
38	0xcf	-49
39	0xdf	-33
40	0xf3	-13
41	0xe4	-28
42	0x22	34
43	0x1f	31
44	0x09	9
45	0x06	6
46	0x3c	60
47	0x11	17
48	0xc3	-61
49	0xba	-70
50	0x05	5
51	0xf7	-9
52	0x0a	10
53	0xb0	-80
54	0xc4	-60
55	0x28	40
56	0x2e	46
57	0xd2	-46
58	0x2b	43
59	0xbe	-66
60	0x3b	59
61	0x1a	26
62	0x1e	30
63	0xa9	-87
64	0xb2	-78
65	0x3a	58
66	0x33	51
67	0x2a	42
68	0x3a	58
69	0xd5	-43
70	0x30	48
71	0xb8	-72
72	0x08	8
73	0xdc	-36
74	0xdb	-37
75	0x04	4
76	0xd3	-45
77	0xf3	-13
78	0xb9	-71
79	0xcb	-53
80	0x26	38
81	0xcb	-53
82	0xcd	-51
83	0xd7	-41
84	0xb3	-77
85	0xbd	-67
86	0x33	51
87	0x19	25
88	0x13	19
89	0xea	-22
90	0x2e	46
91	0xf8	-8
92	0xca	-54
93	0xf0	-16
94	0x2f	47
95	0xd8	-40
96	0xc0	-64
97	0x20	32
98	0x3a	58
99	0xab	-85
100	0xfb	-5
101	0x38	56
102	0xf4	-12
103	0x28	40
104	0x4b	75
105	0x33	51
106	0xe0	-32
107	0xde	-34
108	0x22	34
109	0x44	68
110	0xc6	-58
111	0x2e	46
112	0x03	3
113	0xb8	-72
114	0x12	18
115	0xdb	-37
116	0x05	5
117	0xb6	-74
118	0xc9	-55
119	0x2a	42
120	0xc5	-59
121	0x43	67
122	0x0e	14
123	0x37	55
124	0x19	25
125	0xd6	-42
126	0x27	39
127	0x02	2
128	0x0d	13
129	0xe6	-26
130	0x06	6
131	0xff	-1
132	0x02	2
133	0xd0	-48
134	0x0f	15
135	0xf2	-14
136	0xf7	-9
137	0x27	39
138	0xd2	-46
139	0xd7	-41
140	0x13	19
141	0xfd	-3
142	0x25	37
143	0x19	25
144	0xf6	-10
145	0xca	-54
146	0x0d	13
147	0x1c	28
148	0x36	54
149	0xd8	-40
150	0xd8	-40
151	0xf0	-16
152	0x09	9
153	0xc0	-64
154	0xe1	-31
155	0x44	68
156	0xf6	-10
157	0xf3	-13
158	0xf5	-11
159	0x36	54
160	0x05	5
161	0x1d	29
162	0x37	55
163	0x1c	28
164	0xfd	-3
165	0xe9	-23
166	0x18	24
167	0x08	8
168	0xca	-54
169	0xff	-1
170	0xca	-54
171	0x2d	45
172	0xcb	-53
173	0x2b	43
174	0xe4	-28
175	0xc2	-62
176	0x06	6
177	0x10	16
178	0x1b	27
179	0xf8	-8
180	0x95	-107
181	0x26	38
182	0xca	-54
183	0xf8	-8
184	0x0b	11
185	0x09	9
186	0xb5	-75
187	0xe9	-23
188	0x58	88
189	0x14	20
190	0x55	85
191	0xfc	-4
192	0xd8	-40
193	0x67	103
194	0x1f	31
195	0x52	82
196	0xc5	-59
197	0xcc	-52
198	0xc6	-58
199	0xe2	-30
200	0x2d	45
201	0x3a	58
202	0x40	64
203	0xc5	-59
204	0x37	55
205	0xd0	-48
206	0x21	33
207	0xae	-82
208	0xaa	-86
209	0x1b	27
210	0x22	34
211	0x34	52
212	0x35	53
213	0xe7	-25
214	0x32	50
215	0xe0	-32
216	0x20	32
217	0x37	55
218	0x1e	30
219	0xfb	-5
220	0x0a	10
221	0xe5	-27
222	0xe2	-30
223	0x11	17
224	0xd2	-46
225	0x51	81
226	0xc5	-59
227	0xe1	-31
228	0xf2	-14
229	0x9e	-98
230	0x1a	26
231	0xdd	-35
232	0x10	16
233	0xfe	-2
234	0x3d	61
235	0x43	67
236	0xc3	-61
237	0x2e	46
238	0xc7	-57
239	0xb4	-76
240	0x01	1
241	0x0d	13
242	0xf0	-16
243	0xe7	-25
244	0x01	1
245	0x05	5
246	0xb8	-72
247	0xb7	-73
248	0x11	17
249	0xd0	-48
250	0xe5	-27
251	0x12	18
252	0x06	6
253	0xe9	-23
254	0xd5	-43
255	0x28	40

onnx::DequantizeLinear_277 f4 [32]
0	0x3aec60bf	0.0018034204
1	0x3aaaf3fc	0.0013042684
2	0x3add550c	0.0016886308
3	0x3aaa0875	0.0012972491
4	0x3a9b01bb	0.0011826077
5	0x3ad1625f	0.0015974751
6	0x3af33e68	0.0018558027
7	0x3aa6fac1	0.0012739525
8	0x3ae6677a	0.0017578446
9	0x3aeb55df	0.0017954669
10	0x3ac49d1b	0.0015000434
11	0x3ab8d544	0.0014101644
12	0x3af0c6f0	0.0018369835
13	0x3af02803	0.0018322471
14	0x3accd6b6	0.0015627954
15	0x3b10cd18	0.0022094902
16	0x3a975435	0.0011545481
17	0x3ab4944f	0.001377711
18	0x3b027c75	0.0019910608
19	0x3aa26a97	0.0012391385
20	0x3aa656b6	0.0012690637
21	0x3a98d333	0.0011659622
22	0x3ad76d0c	0.0016435697
23	0x3ae7b808	0.0017678747
24	0x3a8ffdb0	0.0010985639
25	0x3adfd8f8	0.0017078212
26	0x3a9cfc0c	0.0011976971
27	0x3ad8733b	0.0016513834
28	0x3a979b10	0.0011566598
29	0x3a97be1f	0.0011577046
30	0x3ad17a95	0.0015981967
31	0x3abc6b4e	0.0014375241

onnx::DequantizeLinear_284 f4 [32]
0	0x38bbe09e	8.958693e-05
1	0x3887e067	6.4791e-05
2	0x38afeb38	8.388463e-05
3	0x38872533	6.4442305e-05
4	0x38766782	5.874737e-05
5	0x38a66c21	7.9356374e-05
6	0x38c155a4	9.218909e-05
7	0x3884b7e4	6.328503e-05
8	0x38b72121	8.732291e-05
9	0x38bb0c80	8.919183e-05
10	0x389c45a8	7.451634e-05
11	0x3892e89d	7.00515e-05
12	0x38bf5fbc	9.125422e-05
13	0x38bee16b	9.1018934e-05
14	0x38a2cf3b	7.763362e-05
15	0x38e62e5d	0.000109758905
16	0x38708ed4	5.7353478e-05
17	0x388f8717	6.843934e-05
18	0x38cf6ced	9.890818e-05
19	0x38811769	6.15556e-05
20	0x38843581	6.3042164e-05
21	0x3872efa5	5.7920483e-05
22	0x38ab3974	8.164617e-05
23	0x38b82ca1	8.7821165e-05
24	0x3864e4aa	5.4572396e-05
25	0x38b1eb05	8.4837935e-05
26	0x38798c5d	5.949695e-05
27	0x38ac09d8	8.203433e-05
28	0x3870ff76	5.7458376e-05
29	0x38713731	5.751028e-05
30	0x38a67f5f	7.9392215e-05
31	0x3895c24a	7.141063e-05

onnx::DequantizeLinear_291 i1 [64, 32, 3, 3]
0	0x24	36
1	0xd3	-45
2	0x09	9
3	0xd5	-43
4	0x29	41
5	0xb2	-78
6	0xc7	-57
7	0xdc	-36
8	0xbc	-68
9	0x47	71
10	0xbf	-65
11	0xe2	-30
12	0xed	-19
13	0xfa	-6
14	0xc1	-63
15	0x34	52
16	0xa5	-91
17	0xbe	-66
18	0xc9	-55
19	0xad	-83
20	0xbb	-69
21	0xfe	-2
22	0x37	55
23	0xef	-17
24	0xcc	-52
25	0x15	21
26	0x2b	43
27	0xc2	-62
28	0xd6	-42
29	0x46	70
30	0x1d	29
31	0xb5	-75
32	0x05	5
33	0xb7	-73
34	0xb2	-78
35	0xd2	-46
36	0x5f	95
37	0xdf	-33
38	0x5e	94
39	0xb3	-77
40	0xd8	-40
41	0x4c	76
42	0xd5	-43
43	0xb1	-79
44	0xcf	-49
45	0xe0	-32
46	0x36	54
47	0xe0	-32
48	0xd1	-47
49	0x43	67
50	0x38	56
51	0xda	-38
52	0x01	1
53	0xe8	-24
54	0x46	70
55	0xd7	-41
56	0xd5	-43
57	0x2d	45
58	0xfc	-4
59	0xd5	-43
60	0x2b	43
61	0x1b	27
62	0xbe	-66
63	0x34	52
64	0x42	66
65	0x08	8
66	0xae	-82
67	0x23	35
68	0x31	49
69	0xb8	-72
70	0xbc	-68
71	0xf4	-12
72	0xc3	-61
73	0xd8	-40
74	0x56	86
75	0xfa	-6
76	0x16	22
77	0x15	21
78	0x3c	60
79	0xfa	-6
80	0x05	5
81	0x50	80
82	0xea	-22
83	0x50	80
84	0xfa	-6
85	0x3e	62
86	0xc7	-57
87	0xce	-50
88	0x32	50
89	0xcd	-51
90	0x13	19
91	0x5a	90
92	0x0a	10
93	0xd9	-39
94	0xe1	-31
95	0xdb	-37
96	0xcc	-52
97	0x2e	46
98	0x0c	12
99	0xfe	-2
100	0x1c	28
101	0x2f	47
102	0x01	1
103	0x29	41
104	0xea	-22
105	0x1e	30
106	0x12	18
107	0x02	2
108	0x40	64
109	0x5f	95
110	0x47	71
111	0xf1	-15
112	0xfc	-4
113	0x4b	75
114	0xd3	-45
115	0x15	21
116	0xe2	-30
117	0xf3	-13
118	0xeb	-21
119	0x53	83
120	0xdf	-33
121	0xe1	-31
122	0x23	35
123	0xeb	-21
124	0xf6	-10
125	0xc5	-59
126	0xcc	-52
127	0x21	33
128	0x25	37
129	0xbc	-68
130	0xc5	-59
131	0x17	23
132	0xcf	-49
133	0xdd	-35
134	0xe4	-28
135	0xd0	-48
136	0xdd	-35
137	0x47	71
138	0xb6	-74
139	0x2a	42
140	0xba	-70
141	0xe4	-28
142	0xd6	-42
143	0x26	38
144	0xc5	-59
145	0xe0	-32
146	0xb1	-79
147	0xe5	-27
148	0x24	36
149	0x4f	79
150	0x4f	79
151	0xf3	-13
152	0xe5	-27
153	0x1c	28
154	0x47	71
155	0x52	82
156	0x29	41
157	0xef	-17
158	0xc6	-58
159	0xcd	-51
160	0x2a	42
161	0xc9	-55
162	0xb3	-77
163	0xc9	-55
164	0xe7	-25
165	0x14	20
166	0x29	41
167	0x34	52
168	0x1e	30
169	0xfd	-3
170	0xd7	-41
171	0xe6	-26
172	0xec	-20
173	0x06	6
174	0x3c	60
175	0xd0	-48
176	0xe4	-28
177	0xec	-20
178	0xc7	-57
179	0xc7	-57
180	0x12	18
181	0xcf	-49
182	0x0d	13
183	0xe9	-23
184	0x0c	12
185	0xf4	-12
186	0xc5	-59
187	0xd8	-40
188	0xe6	-26
189	0x20	32
190	0x0c	12
191	0xed	-19
192	0x36	54
193	0xf3	-13
194	0x23	35
195	0xd6	-42
196	0xaa	-86
197	0xad	-83
198	0xdb	-37
199	0x2f	47
200	0x31	49
201	0xf9	-7
202	0x07	7
203	0xc2	-62
204	0xd0	-48
205	0xdb	-37
206	0x97	-105
207	0xc2	-62
208	0xd5	-43
209	0x28	40
210	0xfa	-6
211	0xea	-22
212	0x2b	43
213	0xd1	-47
214	0xcc	-52
215	0xf1	-15
216	0x29	41
217	0x02	2
218	0xb5	-75
219	0x28	40
220	0xac	-84
221	0x22	34
222	0x19	25
223	0x01	1
224	0x30	48
225	0x08	8
226	0xb5	-75
227	0x1e	30
228	0x3e	62
229	0xe5	-27
230	0x3a	58
231	0x2d	45
232	0xe4	-28
233	0xf2	-14
234	0xf3	-13
235	0x3f	63
236	0x26	38
237	0x32	50
238	0xa2	-94
239	0xd3	-45
240	0xc0	-64
241	0x06	6
242	0xdd	-35
243	0x1c	28
244	0x38	56
245	0xee	-18
246	0x12	18
247	0xcd	-51
248	0xe9	-23
249	0x0a	10
250	0x2f	47
251	0x15	21
252	0x08	8
253	0x25	37
254	0x43	67
255	0xfc	-4

onnx::DequantizeLinear_292 f4 [64]
0	0x3a9c84c5	0.0011941424
1	0x3a9d59ec	0.0012004948
2	0x3a949648	0.0011336291
3	0x3a9bdf37	0.0011892085
4	0x3ab52887	0.0013821282
5	0x3a9202d9	0.0011139765
6	0x3a9d49ca	0.001200014
7	0x3ab52569	0.0013820353
8	0x3aa794c2	0.0012785422
9	0x3aaa9a29	0.0013015914
10	0x3a90b9d8	0.0011041714
11	0x3a8ebc79	0.001088991
12	0x3a92738e	0.0011173354
13	0x3a9b8244	0.0011864384
14	0x3a8d9a28	0.0010803388
15	0x3a6bf1a7	0.00090005476
16	0x3ad48545	0.0016214034
17	0x3aa23585	0.0012375569
18	0x3a8fa310	0.0010958631
19	0x3abd0300	0.001442045
20	0x3abe4cc6	0.001451873
21	0x3aab38e5	0.001306322
22	0x3a955c4e	0.0011395307
23	0x3aa129bc	0.0012295763
24	0x3aad1499	0.0013204991
25	0x3ac34f61	0.0014900976
26	0x3ab17370	0.0013538431
27	0x3ac8bcd1	0.0015315061
28	0x3aa08d33	0.0012249112
29	0x3aa2dfe6	0.0012426346
30	0x3aadcfc7	0.0013260775
31	0x3a9a723c	0.0011783312
32	0x3a9aa460	0.0011798255
33	0x3a9e1536	0.0012060765
34	0x3a9a6810	0.0011780281
35	0x3aae2b48	0.0013288045
36	0x3a90a55b	0.0011035608
37	0x3a89b262	0.0010505433
38	0x3aa99cca	0.0012940404
39	0x3a8e6cf0	0.0010866206
40	0x3aa632ee	0.0012679973
41	0x3aa3a64a	0.0012485471
42	0x3a93e18b	0.0011282427
43	0x3a963e53	0.0011462666
44	0x3aa95df3	0.0012921676
45	0x3ac166dc	0.0014755386
46	0x3a83838b	0.001003371
47	0x3ac9d522	0.0015398602
48	0x3a895e41	0.001048036
49	0x3a99bd72	0.0011729433
50	0x3a7f9444	0.00097495713
51	0x3aac092e	0.0013125294
52	0x3a995408	0.0011698017
53	0x3a7c0bc5	0.0009614791
54	0x3a94c13c	0.0011349092
55	0x3aa883a1	0.0012856611
56	0x3ab5548a	0.0013834399
57	0x3aba9190	0.0014234055
58	0x3a977828	0.0011556195
59	0x3aa92887	0.0012905755
60	0x3a8d3757	0.0010773939
61	0x3aa07692	0.0012242368
62	0x3ab1ab28	0.0013555037
63	0x3a93bb75	0.0011271077

onnx::DequantizeLinear_293 i1 [64]
0	0x00	0
1	0x00	0
2	0x00	0
3	0x00	0
4	0x00	0
5	0x00	0
6	0x00	0
7	0x00	0
8	0x00	0
9	0x00	0
10	0x00	0
11	0x00	0
12	0x00	0
13	0x00	0
14	0x00	0
15	0x00	0
16	0x00	0
17	0x00	0
18	0x00	0
19	0x00	0
20	0x00	0
21	0x00	0
22	0x00	0
23	0x00	0
24	0x00	0
25	0x00	0
26	0x00	0
27	0x00	0
28	0x00	0
29	0x00	0
30	0x00	0
31	0x00	0
32	0x00	0
33	0x00	0
34	0x00	0
35	0x00	0
36	0x00	0
37	0x00	0
38	0x00	0
39	0x00	0
40	0x00	0
41	0x00	0
42	0x00	0
43	0x00	0
44	0x00	0
45	0x00	0
46	0x00	0
47	0x00	0
48	0x00	0
49	0x00	0
50	0x00	0
51	0x00	0
52	0x00	0
53	0x00	0
54	0x00	0
55	0x00	0
56	0x00	0
57	0x00	0
58	0x00	0
59	0x00	0
60	0x00	0
61	0x00	0
62	0x00	0
63	0x00	0

onnx::DequantizeLinear_299 f4 [64]
0	0x3887cd9b	6.475599e-05
1	0x3888868c	6.510047e-05
2	0x3880ebdb	6.147447e-05
3	0x38873df6	6.448843e-05
4	0x389d2e85	7.495008e-05
5	0x387d5f65	6.0408744e-05
6	0x3888788c	6.507439e-05
7	0x389d2bd1	7.494505e-05
8	0x389166c6	6.933282e-05
9	0x389405d1	7.058273e-05
10	0x387b247a	5.9877035e-05
11	0x3877b091	5.905383e-05
12	0x387e22fa	6.0590894e-05
13	0x3886ed50	6.433821e-05
14	0x3875b8c8	5.8584643e-05
15	0x384cb766	4.8808193e-05
16	0x38b864a5	8.79255e-05
17	0x388cbd8d	6.711027e-05
18	0x387940b5	5.942649e-05
19	0x38a3fee7	7.819925e-05
20	0x38a51d08	7.8732206e-05
21	0x38948f8b	7.083927e-05
22	0x388197ab	6.17945e-05
23	0x388bd535	6.6677494e-05
24	0x38962c49	7.160806e-05
25	0x38a975e2	8.080505e-05
26	0x3899f70b	7.341624e-05
27	0x38ae2b6d	8.305055e-05
28	0x388b4d64	6.6424516e-05
29	0x388d5161	6.738562e-05
30	0x3896ceb1	7.191057e-05
31	0x38860149	6.389857e-05
32	0x38862ccb	6.397961e-05
33	0x3889290c	6.540315e-05
34	0x3885f876	6.388214e-05
35	0x38971e16	7.205845e-05
36	0x387b00ec	5.9843922e-05
37	0x386ef1e1	5.696889e-05
38	0x389329fb	7.017326e-05
39	0x3877268d	5.8925292e-05
40	0x389033c7	6.876099e-05
41	0x388dfd84	6.770625e-05
42	0x38804f0a	6.118238e-05
43	0x38825bc6	6.215977e-05
44	0x3892f375	7.00717e-05
45	0x38a7ce05	8.001555e-05
46	0x3864372e	5.4410826e-05
47	0x38af1ea4	8.3503575e-05
48	0x386e5fe4	5.6832927e-05
49	0x3885646d	6.36064e-05
50	0x385dc0bb	5.287e-05
51	0x38954443	7.1175884e-05
52	0x388508f7	6.343604e-05
53	0x385aaff2	5.2139112e-05
54	0x3881111f	6.1543884e-05
55	0x38923608	6.9718866e-05
56	0x389d54b5	7.502121e-05
57	0x38a1e03f	7.718847e-05
58	0x38836c12	6.2666964e-05
59	0x3892c51b	6.998536e-05
60	0x38750d4e	5.8424943e-05
61	0x388b39c2	6.638795e-05
62	0x389a2764	7.350629e-05
63	0x38802dfe	6.112082e-05

onnx::DequantizeLinear_304 i1 [64, 64, 3, 3]
0	0x10	16
1	0xc2	-62
2	0xa8	-88
3	0x32	50
4	0x23	35
5	0x22	34
6	0xb4	-76
7	0x07	7
8	0xaa	-86
9	0x61	97
10	0x12	18
11	0x49	73
12	0xdc	-36
13	0x29	41
14	0x08	8
15	0x0e	14
16	0x42	66
17	0x17	23
18	0x45	69
19	0x60	96
20	0x5b	91
21	0xe8	-24
22	0x50	80
23	0x13	19
24	0x2c	44
25	0xa2	-94
26	0xcc	-52
27	0x26	38
28	0x00	0
29	0xc5	-59
30	0x22	34
31	0xba	-70
32	0x02	2
33	0x9f	-97
34	0x01	1
35	0x30	48
36	0x11	17
37	0x06	6
38	0x0f	15
39	0x3a	58
40	0x02	2
41	0xba	-70
42	0x52	82
43	0x1d	29
44	0x00	0
45	0xf5	-11
46	0xcd	-51
47	0x05	5
48	0xc6	-58
49	0xaa	-86
50	0x36	54
51	0x09	9
52	0x18	24
53	0x45	69
54	0x4e	78
55	0xcb	-53
56	0x10	16
57	0x0b	11
58	0xcc	-52
59	0xed	-19
60	0xba	-70
61	0xb7	-73
62	0xc4	-60
63	0x19	25
64	0x1e	30
65	0xc5	-59
66	0xe3	-29
67	0xb7	-73
68	0xd1	-47
69	0x0a	10
70	0x38	56
71	0x20	32
72	0xe6	-26
73	0xed	-19
74	0x1e	30
75	0x3e	62
76	0x57	87
77	0x04	4
78	0xe8	-24
79	0xed	-19
80	0xc9	-55
81	0x03	3
82	0xfe	-2
83	0x4f	79
84	0x65	101
85	0x12	18
86	0xc7	-57
87	0x80	-128
88	0xd4	-44
89	0x19	25
90	0x55	85
91	0xfb	-5
92	0x11	17
93	0xf9	-7
94	0x1e	30
95	0x0a	10
96	0x19	25
97	0xe9	-23
98	0xfa	-6
99	0xcb	-53
100	0xd3	-45
101	0xfb	-5
102	0x5b	91
103	0x39	57
104	0x3c	60
105	0x27	39
106	0xd6	-42
107	0xcf	-49
108	0xde	-34
109	0xf7	-9
110	0xfa	-6
111	0x54	84
112	0x0d	13
113	0xd7	-41
114	0xd8	-40
115	0xc1	-63
116	0x04	4
117	0xe3	-29
118	0xa2	-94
119	0x0c	12
120	0x26	38
121	0xc3	-61
122	0xec	-20
123	0xdc	-36
124	0x19	25
125	0x2b	43
126	0xf7	-9
127	0xf9	-7
128	0xe8	-24
129	0xe2	-30
130	0xcb	-53
131	0x0b	11
132	0x1c	28
133	0xcd	-51
134	0xb0	-80
135	0xcb	-53
136	0x1f	31
137	0x53	83
138	0xc1	-63
139	0x13	19
140	0xdb	-37
141	0xc9	-55
142	0xd2	-46
143	0xf7	-9
144	0x3c	60
145	0xfb	-5
146	0xcb	-53
147	0x51	81
148	0x3a	58
149	0xe1	-31
150	0xd3	-45
151	0x4f	79
152	0x1d	29
153	0x23	35
154	0x2c	44
155	0x2c	44
156	0x2b	43
157	0xc2	-62
158	0x38	56
159	0xc7	-57
160	0xa8	-88
161	0xfe	-2
162	0x63	99
163	0x34	52
164	0xc0	-64
165	0xd8	-40
166	0x02	2
167	0xb9	-71
168	0x26	38
169	0xec	-20
170	0x26	38
171	0x16	22
172	0xe4	-28
173	0x14	20
174	0xe7	-25
175	0xc8	-56
176	0xea	-22
177	0xfc	-4
178	0xe9	-23
179	0xf7	-9
180	0xda	-38
181	0xfe	-2
182	0xb7	-73
183	0xc5	-59
184	0x19	25
185	0xd0	-48
186	0x05	5
187	0x26	38
188	0xe2	-30
189	0x3e	62
190	0x21	33
191	0xd8	-40
192	0xb7	-73
193	0xaf	-81
194	0xeb	-21
195	0xf5	-11
196	0x44	68
197	0x16	22
198	0x29	41
199	0xfc	-4
200	0x25	37
201	0xfd	-3
202	0x65	101
203	0x31	49
204	0x1c	28
205	0xb6	-74
206	0x24	36
207	0xe8	-24
208	0x20	32
209	0xbe	-66
210	0x36	54
211	0x2c	44
212	0xc3	-61
213	0xb4	-76
214	0xae	-82
215	0xe0	-32
216	0xdf	-33
217	0xef	-17
218	0xfd	-3
219	0x9d	-99
220	0xfc	-4
221	0x01	1
222	0xd7	-41
223	0x22	34
224	0xd7	-41
225	0xf0	-16
226	0x29	41
227	0x3a	58
228	0x0b	11
229	0x04	4
230	0x13	19
231	0x4a	74
232	0xd0	-48
233	0x1a	26
234	0x19	25
235	0x57	87
236	0x0c	12
237	0xd3	-45
238	0x4b	75
239	0x47	71
240	0x0b	11
241	0x20	32
242	0x17	23
243	0xf9	-7
244	0x62	98
245	0xc5	-59
246	0xab	-85
247	0x24	36
248	0x28	40
249	0x15	21
250	0x0f	15
251	0xe7	-25
252	0xb7	-73
253	0xde	-34
254	0xf1	-15
255	0xb1	-79

onnx::DequantizeLinear_305 f4 [64]
0	0x3ab1ab9b	0.0013555171
1	0x3aa4bab3	0.0012567848
2	0x3aa46705	0.0012542909
3	0x3aaa66db	0.0013000624
4	0x3a9b0704	0.0011827652
5	0x3a75415c	0.00093557476
6	0x3a90136a	0.0010992114
7	0x3a9972f9	0.0011707238
8	0x3a868365	0.0010262547
9	0x3a8b7f1f	0.0010642743
10	0x3a7d4869	0.0009661974
11	0x3aab9a0f	0.0013092178
12	0x3a9a92b8	0.0011792993
13	0x3a964c7d	0.0011466887
14	0x3a8f8ae3	0.0010951426
15	0x3ab175ad	0.0013539098
16	0x3ab8c2b4	0.0014096112
17	0x3aa93db7	0.0012912069
18	0x3aadb491	0.0013252666
19	0x3a8e82c4	0.0010872711
20	0x3a90754f	0.0011021289
21	0x3a84ab31	0.001012182
22	0x3a906b86	0.0011018373
23	0x3a86d0a1	0.0010285565
24	0x3aa6673e	0.0012695563
25	0x3a96b624	0.0011498374
26	0x3a95b1cd	0.0011420787
27	0x3a947d5a	0.0011328862
28	0x3a9efb6b	0.0012129372
29	0x3a9cd221	0.0011964479
30	0x3a8c93f6	0.0010725248
31	0x3a9e2b4f	0.001206735
32	0x3aa7f077	0.0012812753
33	0x3a9aa117	0.0011797276
34	0x3a84724c	0.0010104864
35	0x3aa968a1	0.0012924859
36	0x3a8ea029	0.0010881472
37	0x3aa22ad2	0.0012372381
38	0x3a91b5d3	0.001111681
39	0x3a8b7629	0.0010640073
40	0x3aac6543	0.0013152737
41	0x3aa4642d	0.0012542062
42	0x3aa19fae	0.0012330913
43	0x3abf2594	0.0014583343
44	0x3a973830	0.0011537131
45	0x3a98da96	0.0011661823
46	0x3a8ecf4e	0.0010895522
47	0x3aba7d57	0.0014228028
48	0x3a9e565a	0.0012080178
49	0x3a9ee57a	0.0012122833
50	0x3a733cd0	0.0009278776
51	0x3ab4c0ea	0.0013790403
52	0x3aab7163	0.0013080057
53	0x3aab72ec	0.0013080514
54	0x3ab5bf05	0.0013866132
55	0x3aa7cd47	0.0012802266
56	0x3ab5d7a1	0.0013873467
57	0x3ab94330	0.0014134403
58	0x3aaa55e7	0.0012995572
59	0x3aa17bf9	0.0012320272
60	0x3a882c5e	0.0010389199
61	0x3aab1464	0.0013052342
62	0x3aa02da1	0.001222063
63	0x3a87ca68	0.0010360004

onnx::DequantizeLinear_312 f4 [64]
0	0x3889ee3d	6.5770444e-05
1	0x387fc4ab	6.09799e-05
2	0x387f42be	6.0858896e-05
3	0x388449af	6.307975e-05
4	0x3870b45b	5.7388428e-05
5	0x383e6617	4.539461e-05
6	0x385fb352	5.333435e-05
7	0x386e4104	5.6804172e-05
8	0x3850da63	4.9794453e-05
9	0x38589727	5.1639185e-05
10	0x3844a17c	4.6880436e-05
11	0x3885382d	6.352398e-05
12	0x386fffc9	5.722026e-05
13	0x38695cd2	5.5637975e-05
14	0x385edf58	5.313693e-05
15	0x3889c45f	6.569246e-05
16	0x388f6f5a	6.839512e-05
17	0x38836301	6.265008e-05
18	0x3886da3c	6.430267e-05
19	0x385d4541	5.2755004e-05
20	0x38604b52	5.347591e-05
21	0x384dfd37	4.9111633e-05
22	0x38603c20	5.3461757e-05
23	0x3851524e	4.9906135e-05
24	0x38812f06	6.159958e-05
25	0x386a00dd	5.579075e-05
26	0x38686ca5	5.5414293e-05
27	0x38668dba	5.4968266e-05
28	0x3876d845	5.8852387e-05
29	0x38737d34	5.805232e-05
30	0x385a44fd	5.20395e-05
31	0x38759526	5.8551457e-05
32	0x3882604b	6.216819e-05
33	0x3870161a	5.7241043e-05
34	0x384da4e1	4.9029364e-05
35	0x38838452	6.271213e-05
36	0x385d72e4	5.2797506e-05
37	0x387bca50	6.003148e-05
38	0x38623cf8	5.393938e-05
39	0x3858893d	5.1626226e-05
40	0x3885d5ed	6.381781e-05
41	0x387f3e53	6.085478e-05
42	0x387af246	5.983028e-05
43	0x3894648d	7.075919e-05
44	0x386acac8	5.5978802e-05
45	0x386d5469	5.6583816e-05
46	0x385dbc17	5.286568e-05
47	0x3890c6fc	6.903519e-05
48	0x3875d7fb	5.86137e-05
49	0x3876b634	5.882066e-05
50	0x383cd514	4.5021137e-05
51	0x388c5300	6.69118e-05
52	0x3885189a	6.3465166e-05
53	0x388519cb	6.3467385e-05
54	0x388d1845	6.7279245e-05
55	0x388244fa	6.211731e-05
56	0x388d2b60	6.731483e-05
57	0x388fd319	6.8580914e-05
58	0x38843c86	6.305524e-05
59	0x387abad5	5.9778646e-05
60	0x38536e39	5.0408973e-05
61	0x3884d068	6.333069e-05
62	0x3878b3b6	5.9295176e-05
63	0x3852d61f	5.0267317e-05

onnx::DequantizeLinear_319 i1 [128, 64, 3, 3]
0	0x2c	44
1	0xb8	-72
2	0xc2	-62
3	0xf4	-12
4	0x0e	14
5	0xed	-19
6	0xd4	-44
7	0x5e	94
8	0x13	19
9	0xc1	-63
10	0xc2	-62
11	0xce	-50
12	0x4c	76
13	0x11	17
14	0x23	35
15	0x1a	26
16	0x2c	44
17	0x15	21
18	0x27	39
19	0xc8	-56
20	0x09	9
21	0xf4	-12
22	0x19	25
23	0x0a	10
24	0xf8	-8
25	0x09	9
26	0x1f	31
27	0xc1	-63
28	0xdc	-36
29	0x36	54
30	0x3b	59
31	0x3e	62
32	0xdc	-36
33	0x12	18
34	0x45	69
35	0x3b	59
36	0x3a	58
37	0xc8	-56
38	0x2a	42
39	0xc4	-60
40	0xc0	-64
41	0xee	-18
42	0x14	20
43	0xcd	-51
44	0xbd	-67
45	0xf3	-13
46	0x12	18
47	0x4e	78
48	0x3b	59
49	0x2f	47
50	0xfb	-5
51	0x1a	26
52	0x40	64
53	0x57	87
54	0xdd	-35
55	0x00	0
56	0xf4	-12
57	0xd2	-46
58	0x43	67
59	0xbc	-68
60	0xda	-38
61	0xf4	-12
62	0x4b	75
63	0x3c	60
64	0x34	52
65	0x2d	45
66	0xd4	-44
67	0xe0	-32
68	0xe9	-23
69	0x00	0
70	0xf8	-8
71	0x36	54
72	0x02	2
73	0x1e	30
74	0x13	19
75	0xb0	-80
76	0x3a	58
77	0xd7	-41
78	0x1d	29
79	0x33	51
80	0x21	33
81	0x3a	58
82	0xeb	-21
83	0xe5	-27
84	0x1a	26
85	0x40	64
86	0x14	20
87	0x1d	29
88	0x00	0
89	0x1c	28
90	0x2b	43
91	0x0b	11
92	0xd7	-41
93	0xc2	-62
94	0xe2	-30
95	0xd1	-47
96	0x27	39
97	0x1a	26
98	0xdc	-36
99	0x38	56
100	0x25	37
101	0x1c	28
102	0xb7	-73
103	0xe7	-25
104	0x07	7
105	0xb8	-72
106	0x9e	-98
107	0xbd	-67
108	0x1f	31
109	0xb7	-73
110	0x1b	27
111	0x37	55
112	0xe1	-31
113	0xae	-82
114	0x00	0
115	0x05	5
116	0x0e	14
117	0x25	37
118	0xa9	-87
119	0xc2	-62
120	0x04	4
121	0xfb	-5
122	0xa9	-87
123	0xcb	-53
124	0xd0	-48
125	0xad	-83
126	0x0d	13
127	0xd5	-43
128	0xce	-50
129	0x11	17
130	0x0f	15
131	0xc4	-60
132	0x19	25
133	0xb4	-76
134	0x08	8
135	0xcf	-49
136	0x25	37
137	0xc9	-55
138	0xbc	-68
139	0x9e	-98
140	0x17	23
141	0x15	21
142	0xb6	-74
143	0xd0	-48
144	0x1e	30
145	0x02	2
146	0xe1	-31
147	0x33	51
148	0x1e	30
149	0x51	81
150	0x24	36
151	0xe3	-29
152	0xc0	-64
153	0xba	-70
154	0xe3	-29
155	0x1e	30
156	0xb3	-77
157	0xc4	-60
158	0xd4	-44
159	0xd7	-41
160	0x15	21
161	0xdd	-35
162	0xc2	-62
163	0x27	39
164	0xc8	-56
165	0xa4	-92
166	0xdb	-37
167	0xad	-83
168	0x01	1
169	0x32	50
170	0xc3	-61
171	0xf0	-16
172	0xef	-17
173	0xe2	-30
174	0xe8	-24
175	0x1a	26
176	0xd0	-48
177	0x20	32
178	0x00	0
179	0x33	51
180	0x29	41
181	0x31	49
182	0x02	2
183	0x3d	61
184	0x34	52
185	0x2e	46
186	0x33	51
187	0xe2	-30
188	0xe8	-24
189	0xf7	-9
190	0x27	39
191	0x31	49
192	0x5e	94
193	0x10	16
194	0xfa	-6
195	0x59	89
196	0x4b	75
197	0xd4	-44
198	0xda	-38
199	0xde	-34
200	0xd2	-46
201	0x2a	42
202	0xdc	-36
203	0x24	36
204	0x0a	10
205	0x14	20
206	0xc2	-62
207	0xff	-1
208	0x18	24
209	0x56	86
210	0xf7	-9
211	0x42	66
212	0xf3	-13
213	0x10	16
214	0xc0	-64
215	0xc0	-64
216	0x1e	30
217	0x49	73
218	0x3c	60
219	0xe4	-28
220	0x1e	30
221	0xb2	-78
222	0xb3	-77
223	0xf6	-10
224	0xfd	-3
225	0xe2	-30
226	0xd3	-45
227	0xa8	-88
228	0xdb	-37
229	0xb0	-80
230	0x0a	10
231	0x05	5
232	0x1f	31
233	0x2e	46
234	0x09	9
235	0x1b	27
236	0x40	64
237	0x09	9
238	0xed	-19
239	0x27	39
240	0x37	55
241	0x2c	44
242	0x1a	26
243	0x24	36
244	0x30	48
245	0xff	-1
246	0xc3	-61
247	0x10	16
248	0xb1	-79
249	0x1a	26
250	0x17	23
251	0x31	49
252	0x0b	11
253	0xc4	-60
254	0xc0	-64
255	0x2b	43

onnx::DequantizeLinear_320 f4 [128]
0	0x3a95db13	0.0011433087
1	0x3a58d36c	0.00082712504
2	0x3a79e4e8	0.0009532706
3	0x3a652d28	0.00087423855
4	0x3a663ccd	0.0008782864
5	0x3a500b99	0.00079362985
6	0x3a2162bc	0.0006156375
7	0x3a8614de	0.0010229608
8	0x3a7b407c	0.0009584499
9	0x3a64d72b	0.00087295723
10	0x3a6a681f	0.0008941907
11	0x3a8c7e11	0.0010718723
12	0x3a697698	0.00089059165
13	0x3a76b2f1	0.00094108196
14	0x3a7440a7	0.0009317495
15	0x3a5ce92b	0.0008427079
16	0x3a82fd00	0.0009993613
17	0x3a73a957	0.0009294948
18	0x3a92dba9	0.001120438
19	0x3a73b611	0.00092968444
20	0x3a87c283	0.0010357652
21	0x3a60ed04	0.000858024
22	0x3a59176c	0.0008281383
23	0x3a4e0fe8	0.00078606466
24	0x3a7feb35	0.00097625266
25	0x3a59a0dd	0.00083018636
26	0x3a66b4b1	0.0008800729
27	0x3a552cc2	0.00081319746
28	0x3a88a803	0.0010426048
29	0x3a46f10e	0.00075890205
30	0x3a6327f6	0.00086653174
31	0x3a79e2ea	0.0009532409
32	0x3a80d42d	0.0009828858
33	0x3a8260c9	0.0009947057
34	0x3a713422	0.0009201189
35	0x3a6a38f4	0.0008934878
36	0x3a821c73	0.0009926691
37	0x3a5dde96	0.0008463649
38	0x3a66207c	0.0008778644
39	0x3a6ef77e	0.00091158587
40	0x3a8392c1	0.0010038243
41	0x3a869be1	0.0010269844
42	0x3a50be49	0.0007962925
43	0x3a526f8d	0.00080274866
44	0x3a7b9813	0.0009597551
45	0x3a831d58	0.0010003252
46	0x3a7e9643	0.0009711722
47	0x3a612909	0.00085891836
48	0x3a6fa110	0.00091411266
49	0x3a835878	0.0010020873
50	0x3a6fe2b1	0.0009150906
51	0x3a4f5198	0.0007908582
52	0x3a62f454	0.00086576235
53	0x3a65e608	0.0008769934
54	0x3a818621	0.0009881892
55	0x3a677c98	0.00088305166
56	0x3a68bacd	0.0008877933
57	0x3a8bc18c	0.001066254
58	0x3a7acf7f	0.00095676625
59	0x3a595641	0.0008290746
60	0x3a931b72	0.0011223389
61	0x3a594827	0.00082886446
62	0x3a7aabf1	0.00095623644
63	0x3a312850	0.0006758021
64	0x3a4abe4c	0.0007734045
65	0x3a70f8d4	0.0009192352
66	0x3a61a6ee	0.00086079433
67	0x3a7418ad	0.00093115383
68	0x3a6e8be1	0.0009099823
69	0x3a89d6af	0.0010516251
70	0x3a720b6e	0.00092332705
71	0x3a63d337	0.0008690836
72	0x3a7a6682	0.0009552018
73	0x3a6dedb8	0.00090762554
74	0x3a6408d2	0.0008698824
75	0x3a7171b8	0.0009210366
76	0x3a607734	0.00085626845
77	0x3a803341	0.00097809
78	0x3a816d73	0.0009874537
79	0x3a4b742a	0.0007761145
80	0x3a80e3bf	0.0009833499
81	0x3a8d981e	0.0010802781
82	0x3a6285c1	0.00086411467
83	0x3a6fed8a	0.00091525225
84	0x3a85dfa6	0.0010213747
85	0x3a83a611	0.0010043998
86	0x3a5d6043	0.0008444825
87	0x3a37426e	0.0006990795
88	0x3a5c527a	0.0008404624
89	0x3a5bbfb8	0.00083827553
90	0x3a811fb0	0.0009851363
91	0x3a66d86a	0.0008806052
92	0x3a8870a6	0.0010409548
93	0x3a6d377d	0.0009049101
94	0x3a833983	0.0010011647
95	0x3a5e76dc	0.00084863394
96	0x3a7c3112	0.0009620349
97	0x3a87b7df	0.001035448
98	0x3a2dd167	0.00066306297
99	0x3a7bcb79	0.000960521
100	0x3a84b9e5	0.0010126202
101	0x3a69efc5	0.0008923973
102	0x3a7b4e17	0.00095865264
103	0x3a93ac58	0.0011266572
104	0x3a61b364	0.00086098
105	0x3a5f9547	0.0008529019
106	0x3a75cb8d	0.000937634
107	0x3a75b12f	0.0009372411
108	0x3a7e4c5f	0.0009700711
109	0x3a66e176	0.00088074
110	0x3a613db3	0.0008592263
111	0x3a704dc4	0.00091668614
112	0x3a63420a	0.00086692034
113	0x3a80c1c6	0.0009823374
114	0x3a85addd	0.001019891
115	0x3a6f371c	0.00091253384
116	0x3a8f4122	0.0010929445
117	0x3a46afaf	0.00075792795
118	0x3a7b5f91	0.00095891306
119	0x3a4d3e72	0.00078294345
120	0x3a6fbb8f	0.0009145075
121	0x3a5d31bc	0.0008437892
122	0x3a7d32b5	0.000965874
123	0x3a7a4f4f	0.0009548561
124	0x3a66cf05	0.0008804652
125	0x3a5ebde2	0.00084969227
126	0x3a62fbfd	0.0008658765
127	0x3a7c9043	0.0009634534

onnx::DequantizeLinear_321 i1 [128]
0	0x00	0
1	0x00	0
2	0x00	0
3	0x00	0
4	0x00	0
5	0x00	0
6	0x00	0
7	0x00	0
8	0x00	0
9	0x00	0
10	0x00	0
11	0x00	0
12	0x00	0
13	0x00	0
14	0x00	0
15	0x00	0
16	0x00	0
17	0x00	0
18	0x00	0
19	0x00	0
20	0x00	0
21	0x00	0
22	0x00	0
23	0x00	0
24	0x00	0
25	0x00	0
26	0x00	0
27	0x00	0
28	0x00	0
29	0x00	0
30	0x00	0
31	0x00	0
32	0x00	0
33	0x00	0
34	0x00	0
35	0x00	0
36	0x00	0
37	0x00	0
38	0x00	0
39	0x00	0
40	0x00	0
41	0x00	0
42	0x00	0
43	0x00	0
44	0x00	0
45	0x00	0
46	0x00	0
47	0x00	0
48	0x00	0
49	0x00	0
50	0x00	0
51	0x00	0
52	0x00	0
53	0x00	0
54	0x00	0
55	0x00	0
56	0x00	0
57	0x00	0
58	0x00	0
59	0x00	0
60	0x00	0
61	0x00	0
62	0x00	0
63	0x00	0
64	0x00	0
65	0x00	0
66	0x00	0
67	0x00	0
68	0x00	0
69	0x00	0
70	0x00	0
71	0x00	0
72	0x00	0
73	0x00	0
74	0x00	0
75	0x00	0
76	0x00	0
77	0x00	0
78	0x00	0
79	0x00	0
80	0x00	0
81	0x00	0
82	0x00	0
83	0x00	0
84	0x00	0
85	0x00	0
86	0x00	0
87	0x00	0
88	0x00	0
89	0x00	0
90	0x00	0
91	0x00	0
92	0x00	0
93	0x00	0
94	0x00	0
95	0x00	0
96	0x00	0
97	0x00	0
98	0x00	0
99	0x00	0
100	0x00	0
101	0x00	0
102	0x00	0
103	0x00	0
104	0x00	0
105	0x00	0
106	0x00	0
107	0x00	0
108	0x00	0
109	0x00	0
110	0x00	0
111	0x00	0
112	0x00	0
113	0x00	0
114	0x00	0
115	0x00	0
116	0x00	0
117	0x00	0
118	0x00	0
119	0x00	0
120	0x00	0
121	0x00	0
122	0x00	0
123	0x00	0
124	0x00	0
125	0x00	0
126	0x00	0
127	0x00	0

onnx::DequantizeLinear_327 f4 [128]
0	0x385ae210	5.2185787e-05
1	0x381e59c3	3.7753733e-05
2	0x38368036	4.3511587e-05
3	0x38275ed1	3.9904207e-05
4	0x38282534	4.008897e-05
5	0x3817f026	3.622486e-05
6	0x37ebb955	2.8100485e-05
7	0x3843d7c2	4.6692563e-05
8	0x38377e0d	4.3747994e-05
9	0x38272005	3.9845723e-05
10	0x382b30ae	4.0814914e-05
11	0x384d34ef	4.8925107e-05
12	0x382a804a	4.0650637e-05
13	0x38342ad7	4.2955242e-05
14	0x38326174	4.2529267e-05
15	0x3821557c	3.8465005e-05
16	0x383f5323	4.5615376e-05
17	0x3831f2f3	4.2426353e-05
18	0x38568129	5.1141866e-05
19	0x3831fc3e	4.2435007e-05
20	0x38464b4e	4.727701e-05
21	0x38244422	3.91641e-05
22	0x381e8b6c	3.7799982e-05
23	0x38167d60	3.587955e-05
24	0x383ae693	4.4560595e-05
25	0x381eefcc	3.7893464e-05
26	0x38287cc2	4.017051e-05
27	0x381baf2a	3.7118014e-05
28	0x38479a85	4.7589205e-05
29	0x38114a20	3.463973e-05
30	0x3825e51a	3.9552433e-05
31	0x38367ec2	4.3510234e-05
32	0x383c2bab	4.4863362e-05
33	0x383e6ef7	4.5402874e-05
34	0x3830276e	4.199839e-05
35	0x382b0e3b	4.078283e-05
36	0x383e0b27	4.5309916e-05
37	0x382208b7	3.8631926e-05
38	0x38281086	4.006971e-05
39	0x382e8539	4.1608906e-05
40	0x38402ddf	4.5819088e-05
41	0x38449cf5	4.687622e-05
42	0x381872a5	3.6346395e-05
43	0x3819af11	3.6641086e-05
44	0x3837be05	4.380757e-05
45	0x383f8261	4.5659373e-05
46	0x3839ed93	4.4328695e-05
47	0x38246ff7	3.9204922e-05
48	0x382f0110	4.172424e-05
49	0x383fd8bd	4.5739802e-05
50	0x382f30fe	4.176888e-05
51	0x3817684f	3.609835e-05
52	0x3825bf65	3.9517316e-05
53	0x3827e5d5	4.002995e-05
54	0x383d2f97	4.5105433e-05
55	0x38290ec0	4.0306477e-05
56	0x3829f724	4.0522908e-05
57	0x384c2194	4.8668662e-05
58	0x38372b89	4.3671145e-05
59	0x381eb94f	3.7842718e-05
60	0x3856de53	5.122863e-05
61	0x381eaf03	3.7833128e-05
62	0x38371192	4.3646964e-05
63	0x3801615c	3.084667e-05
64	0x381410e5	3.5301684e-05
65	0x382ffc1f	4.1958057e-05
66	0x3824cbe9	3.9290553e-05
67	0x38324442	4.2502077e-05
68	0x382e36a2	4.1535714e-05
69	0x3849549c	4.8000933e-05
70	0x3830c4aa	4.2144828e-05
71	0x3826622c	3.9668914e-05
72	0x3836dedc	4.3599735e-05
73	0x382dc320	4.142814e-05
74	0x38268952	3.9705374e-05
75	0x38305468	4.204028e-05
76	0x3823ee18	3.908397e-05
77	0x383b409f	4.4644457e-05
78	0x383d0b8b	4.507186e-05
79	0x381495b7	3.5425383e-05
80	0x383c4269	4.4884542e-05
81	0x384ed0e7	4.9308783e-05
82	0x38256ea4	3.9442108e-05
83	0x382f38ea	4.1776257e-05
84	0x38438a06	4.6620167e-05
85	0x38404a14	4.5845358e-05
86	0x3821ac76	3.8546008e-05
87	0x3805d631	3.1909152e-05
88	0x3820e76f	3.8362512e-05
89	0x38207c41	3.8262693e-05
90	0x383c99f6	4.496608e-05
91	0x382896d9	4.019481e-05
92	0x384749a8	4.7513895e-05
93	0x382d3e0b	4.1304196e-05
94	0x383fab85	4.569769e-05
95	0x382277ec	3.8735496e-05
96	0x38382dc1	4.391163e-05
97	0x38463bc4	4.726254e-05
98	0x37fde204	3.0265197e-05
99	0x3837e38e	4.3842527e-05
100	0x3841dcf6	4.622057e-05
101	0x382ad8c9	4.0733055e-05
102	0x383787fd	4.375725e-05
103	0x3857b1f8	5.142574e-05
104	0x3824d502	3.9299026e-05
105	0x38234919	3.8930306e-05
106	0x383381db	4.2797863e-05
107	0x38336e99	4.2779928e-05
108	0x3839b79d	4.427844e-05
109	0x38289d74	4.020096e-05
110	0x38247f0f	3.921898e-05
111	0x382f7f31	4.1841708e-05
112	0x3825f826	3.957017e-05
113	0x383c10ca	4.483833e-05
114	0x3843414f	4.6552446e-05
115	0x382eb3af	4.1652176e-05
116	0x38513db1	4.9886938e-05
117	0x38111a62	3.4595265e-05
118	0x383794c0	4.3769134e-05
119	0x3815e467	3.5737085e-05
120	0x382f146a	4.1742263e-05
121	0x38218a7b	3.851436e-05
122	0x3838e9e9	4.4086864e-05
123	0x3836cdeb	4.3583957e-05
124	0x38288ffd	4.018842e-05
125	0x3822abcb	3.8783804e-05
126	0x3825c4fd	3.9522525e-05
127	0x38387346	4.3976375e-05

onnx::DequantizeLinear_332 i1 [128, 128, 3, 3]
0	0x36	54
1	0xe4	-28
2	0x6e	110
3	0xdc	-36
4	0x1e	30
5	0x28	40
6	0xaa	-86
7	0x06	6
8	0xe9	-23
9	0x1b	27
10	0x92	-110
11	0xc5	-59
12	0x0b	11
13	0x1d	29
14	0x17	23
15	0xcf	-49
16	0xe7	-25
17	0x23	35
18	0xb9	-71
19	0xb2	-78
20	0xbf	-65
21	0xb7	-73
22	0xc1	-63
23	0x1d	29
24	0x34	52
25	0x04	4
26	0x21	33
27	0x57	87
28	0x33	51
29	0xe6	-26
30	0x27	39
31	0x05	5
32	0x05	5
33	0xf9	-7
34	0xdb	-37
35	0x01	1
36	0x57	87
37	0x24	36
38	0x0f	15
39	0x44	68
40	0xe3	-29
41	0xf4	-12
42	0x00	0
43	0xfe	-2
44	0x3b	59
45	0x1c	28
46	0x27	39
47	0x25	37
48	0x20	32
49	0xee	-18
50	0x40	64
51	0x25	37
52	0xd9	-39
53	0xd1	-47
54	0x23	35
55	0xe6	-26
56	0x03	3
57	0xed	-19
58	0x28	40
59	0xa8	-88
60	0x09	9
61	0x47	71
62	0x34	52
63	0x1a	26
64	0x1f	31
65	0xf3	-13
66	0x3a	58
67	0xe0	-32
68	0xe7	-25
69	0xf0	-16
70	0x21	33
71	0xfc	-4
72	0x0d	13
73	0xd0	-48
74	0x5d	93
75	0xd5	-43
76	0x01	1
77	0x02	2
78	0x33	51
79	0xc6	-58
80	0x2d	45
81	0x13	19
82	0x00	0
83	0x17	23
84	0xf6	-10
85	0xef	-17
86	0xf8	-8
87	0xe9	-23
88	0x12	18
89	0xbb	-69
90	0x11	17
91	0x0b	11
92	0xcb	-53
93	0x2a	42
94	0xfc	-4
95	0x04	4
96	0xee	-18
97	0x08	8
98	0x39	57
99	0xf7	-9
100	0xf2	-14
101	0x24	36
102	0xd1	-47
103	0xd6	-42
104	0xdc	-36
105	0xc1	-63
106	0xc5	-59
107	0xc7	-57
108	0x24	36
109	0x08	8
110	0x3f	63
111	0x13	19
112	0x17	23
113	0x4d	77
114	0x09	9
115	0xae	-82
116	0x19	25
117	0x19	25
118	0x34	52
119	0x1a	26
120	0xe3	-29
121	0xeb	-21
122	0xd2	-46
123	0x1f	31
124	0x4e	78
125	0x51	81
126	0xf1	-15
127	0x1e	30
128	0xc8	-56
129	0x13	19
130	0x35	53
131	0x08	8
132	0x11	17
133	0x02	2
134	0xf2	-14
135	0x19	25
136	0x52	82
137	0x47	71
138	0xff	-1
139	0xc4	-60
140	0xc4	-60
141	0xe6	-26
142	0x54	84
143	0x51	81
144	0x12	18
145	0x32	50
146	0x05	5
147	0xd8	-40
148	0xe4	-28
149	0x33	51
150	0x3e	62
151	0xcc	-52
152	0x29	41
153	0xb3	-77
154	0x25	37
155	0x1d	29
156	0x44	68
157	0x23	35
158	0xca	-54
159	0x2e	46
160	0xe6	-26
161	0x10	16
162	0x9d	-99
163	0xbd	-67
164	0xb9	-71
165	0xe9	-23
166	0x4b	75
167	0x33	51
168	0xe7	-25
169	0xef	-17
170	0x1b	27
171	0xb4	-76
172	0x0f	15
173	0x2b	43
174	0xba	-70
175	0xca	-54
176	0x18	24
177	0x22	34
178	0x08	8
179	0xc4	-60
180	0xeb	-21
181	0x0a	10
182	0x0a	10
183	0x19	25
184	0x42	66
185	0x50	80
186	0x3f	63
187	0xcb	-53
188	0xe7	-25
189	0xaf	-81
190	0x1c	28
191	0x0e	14
192	0xf2	-14
193	0xf8	-8
194	0xab	-85
195	0xc3	-61
196	0xd7	-41
197	0xca	-54
198	0xb8	-72
199	0xd6	-42
200	0xec	-20
201	0x32	50
202	0x38	56
203	0xe2	-30
204	0xca	-54
205	0x25	37
206	0x38	56
207	0x3d	61
208	0x34	52
209	0x09	9
210	0xe5	-27
211	0xf0	-16
212	0x53	83
213	0xcf	-49
214	0xf7	-9
215	0x4a	74
216	0x2b	43
217	0x20	32
218	0x47	71
219	0x06	6
220	0x61	97
221	0x1c	28
222	0x03	3
223	0x21	33
224	0xf6	-10
225	0xd4	-44
226	0xda	-38
227	0x21	33
228	0xb4	-76
229	0x0a	10
230	0xf5	-11
231	0x56	86
232	0xbe	-66
233	0xb6	-74
234	0x52	82
235	0xf1	-15
236	0xc0	-64
237	0xf5	-11
238	0xe8	-24
239	0x2b	43
240	0xe3	-29
241	0xe8	-24
242	0xa6	-90
243	0xf8	-8
244	0xaa	-86
245	0xa8	-88
246	0xca	-54
247	0xfc	-4
248	0xcb	-53
249	0x06	6
250	0x00	0
251	0xcd	-51
252	0xe6	-26
253	0x1e	30
254	0xf1	-15
255	0xda	-38

onnx::DequantizeLinear_333 f4 [128]
0	0x3a9df2e0	0.0012050532
1	0x3a9642b7	0.0011463974
2	0x3a8a54ac	0.0010553799
3	0x3a9a16c0	0.0011756048
4	0x3a967731	0.0011479614
5	0x3a99f761	0.0011746698
6	0x3a87082f	0.0010302122
7	0x3a86adc1	0.0010275171
8	0x3a92ac62	0.001119029
9	0x3a8260f7	0.0009947111
10	0x3a8821ba	0.0010386028
11	0x3aaa863a	0.0013009973
12	0x3a829431	0.0009962377
13	0x3a97bd6a	0.0011576836
14	0x3a93bf33	0.0011272192
15	0x3a8a4132	0.0010547994
16	0x3a9ce531	0.001197016
17	0x3aa0442a	0.0012227346
18	0x3a7bbcea	0.00096030405
19	0x3a829610	0.0009962935
20	0x3a885f32	0.0010404347
21	0x3a90f58c	0.0011059507
22	0x3a9d0c36	0.0011981789
23	0x3a94ea05	0.0011361247
24	0x3a939ecf	0.0011262539
25	0x3a8c7692	0.0010716489
26	0x3a940375	0.0011292534
27	0x3a915df7	0.0011090626
28	0x3a923d3b	0.0011157164
29	0x3a8a94f1	0.0010572952
30	0x3a8c8960	0.0010722093
31	0x3a839803	0.001003981
32	0x3a945b7e	0.0011318771
33	0x3a7c4368	0.00096230814
34	0x3a8a63df	0.0010558328
35	0x3a8ceb14	0.0010751211
36	0x3a8ccb21	0.001074169
37	0x3a84867c	0.001011088
38	0x3aa10c57	0.0012287003
39	0x3a8f89cb	0.00109511
40	0x3a96d892	0.0011508635
41	0x3a8dee1d	0.001082841
42	0x3a91a676	0.0011112231
43	0x3a95cae5	0.0011428265
44	0x3a931c76	0.0011223692
45	0x3a8d4b3f	0.0010779871
46	0x3a9b95a9	0.0011870164
47	0x3a8a7bf5	0.0010565507
48	0x3a975aa4	0.0011547399
49	0x3a8ab38e	0.0010582076
50	0x3a8b214a	0.0010614779
51	0x3a98e501	0.0011664928
52	0x3a8bfad0	0.0010679606
53	0x3aaaa895	0.0013020212
54	0x3a89b16e	0.0010505149
55	0x3a80763f	0.0009800865
56	0x3a8dec19	0.0010827809
57	0x3a97757c	0.0011555399
58	0x3a8fc0d1	0.0010967498
59	0x3a99c046	0.0011730276
60	0x3a896edb	0.0010485308
61	0x3a87f162	0.001037162
62	0x3a81c8e6	0.0009901791
63	0x3aa8f610	0.0012890715
64	0x3a961139	0.0011449225
65	0x3a88db2a	0.0010441293
66	0x3a8fc9d5	0.0010970185
67	0x3a8e184b	0.001084098
68	0x3a705183	0.00091674196
69	0x3a9cd5ff	0.0011965631
70	0x3a74a063	0.0009331761
71	0x3a8b035d	0.0010605861
72	0x3a818031	0.0009880123
73	0x3a8e893f	0.0010874643
74	0x3aa194b9	0.0012327648
75	0x3a9175a3	0.001109768
76	0x3a9af1cc	0.0011821329
77	0x3a90b83c	0.0011041234
78	0x3aac0f03	0.0013127032
79	0x3a899636	0.0010497037
80	0x3aad7cb1	0.0013236013
81	0x3a7e50a2	0.0009701346
82	0x3a861e5b	0.0010232435
83	0x3a8fb34a	0.0010963466
84	0x3aaad6db	0.0013034003
85	0x3a7c1ed7	0.00096176326
86	0x3a976543	0.0011550564
87	0x3a993b07	0.0011690565
88	0x3a8e48de	0.0010855456
89	0x3a94e069	0.0011358383
90	0x3a973da4	0.0011538756
91	0x3a81fbbe	0.0009916944
92	0x3a91c730	0.0011121985
93	0x3a9295f5	0.0011183607
94	0x3a93d03a	0.0011277266
95	0x3a86014c	0.0010223775
96	0x3aa30bc1	0.0012439416
97	0x3a8ac522	0.0010587315
98	0x3a8a0197	0.0010529038
99	0x3a8f82e0	0.0010949038
100	0x3a6d0e74	0.0009042986
101	0x3a850df1	0.001015125
102	0x3a9c4fa0	0.0011925586
103	0x3a8876cf	0.0010411384
104	0x3a8ffa06	0.0010984547
105	0x3a909063	0.0011029359
106	0x3a9add71	0.0011815262
107	0x3aa970ee	0.0012927332
108	0x3a853573	0.0010163024
109	0x3a99bf42	0.0011729973
110	0x3a97159a	0.0011526824
111	0x3a8c507f	0.0010705142
112	0x3a8a846c	0.0010568029
113	0x3aa21499	0.0012365758
114	0x3a8dabe8	0.0010808678
115	0x3a87d908	0.0010364363
116	0x3a8497d7	0.0010116053
117	0x3a9a03f4	0.0011750446
118	0x3a864e94	0.0010246807
119	0x3a845959	0.0010097428
120	0x3a8c5806	0.0010707385
121	0x3a97d13b	0.0011582741
122	0x3a89db41	0.0010517613
123	0x3a83b8f7	0.0010049631
124	0x3a8aee2f	0.0010599549
125	0x3a9dc629	0.0012037206
126	0x3a96812e	0.001148259
127	0x3aa5d40c	0.0012651696

onnx::DequantizeLinear_340 f4 [128]
0	0x383c725b	4.4929195e-05
1	0x3833462b	4.2742275e-05
2	0x38250a6d	3.9348775e-05
3	0x3837d770	4.383124e-05
4	0x383384c7	4.2800584e-05
5	0x3837b202	4.3796383e-05
6	0x38211ae1	3.8410424e-05
7	0x3820aefd	3.8309943e-05
8	0x382efe85	4.1721873e-05
9	0x381b8da6	3.70868e-05
10	0x38226ac9	3.872326e-05
11	0x384b7353	4.8506376e-05
12	0x381bcac5	3.7143724e-05
13	0x383509fe	4.316307e-05
14	0x38304666	4.2027234e-05
15	0x3824f331	3.9327137e-05
16	0x383b309a	4.4629538e-05
17	0x383f3634	4.558843e-05
18	0x38162c39	3.5803972e-05
19	0x381bcd00	3.71458e-05
20	0x3822b41f	3.879156e-05
21	0x382cf2f3	4.123426e-05
22	0x383b5f27	4.467289e-05
23	0x3831aaeb	4.235927e-05
24	0x38301fc1	4.1991243e-05
25	0x382795bb	3.995535e-05
26	0x383097d6	4.2103078e-05
27	0x382d6f87	4.1350282e-05
28	0x382e79e7	4.1598363e-05
29	0x3825571b	3.942019e-05
30	0x3827ac2b	3.9976247e-05
31	0x381d00c2	3.7432423e-05
32	0x383100df	4.22009e-05
33	0x38167c74	3.5878693e-05
34	0x38251c90	3.9365666e-05
35	0x382820bc	4.0084808e-05
36	0x3827fa9e	4.0049308e-05
37	0x381e1d46	3.76974e-05
38	0x38402508	4.5810855e-05
39	0x382b40f5	4.0830073e-05
40	0x3833f8f6	4.290879e-05
41	0x382955ca	4.0372637e-05
42	0x382dc606	4.1430838e-05
43	0x3832b736	4.2609136e-05
44	0x382f843d	4.1846408e-05
45	0x38289379	4.0191666e-05
46	0x3839a048	4.425671e-05
47	0x3825394c	3.9392427e-05
48	0x38349425	4.3053315e-05
49	0x38257ba2	3.9454208e-05
50	0x3825fe8e	3.9576138e-05
51	0x38366aa8	4.3491513e-05
52	0x38270214	3.9817838e-05
53	0x384b9c51	4.8544553e-05
54	0x382447aa	3.916739e-05
55	0x3819442e	3.654154e-05
56	0x38295362	4.0370396e-05
57	0x3834b42c	4.3083142e-05
58	0x382b829b	4.0891213e-05
59	0x38377043	4.3735152e-05
60	0x3823f83c	3.9093415e-05
61	0x3822311b	3.8669543e-05
62	0x381ad839	3.6917834e-05
63	0x384995e5	4.8061735e-05
64	0x38330b1f	4.2687283e-05
65	0x38234807	3.892931e-05
66	0x382b8d5d	4.0901232e-05
67	0x3829881d	4.0419505e-05
68	0x380f5c48	3.41798e-05
69	0x383b1e79	4.4612654e-05
70	0x3811ee32	3.479253e-05
71	0x3825dad9	3.9542883e-05
72	0x381a817a	3.6837046e-05
73	0x382a0ee0	4.0545012e-05
74	0x3840c7bf	4.5962395e-05
75	0x382d8bc5	4.1376585e-05
76	0x3838dcc7	4.4074633e-05
77	0x382ca9cc	4.116613e-05
78	0x384d47f4	4.894282e-05
79	0x38242731	3.9137147e-05
80	0x384efc3e	4.9349146e-05
81	0x3817b5c6	3.6170495e-05
82	0x382003e7	3.8150607e-05
83	0x382b7277	4.087618e-05
84	0x384bd386	4.8595968e-05
85	0x381666a3	3.5858375e-05
86	0x3834a0d1	4.3065116e-05
87	0x3836d14a	4.3587097e-05
88	0x3829c211	4.047348e-05
89	0x38319f74	4.234859e-05
90	0x3834718c	4.3021093e-05
91	0x381b14e2	3.697433e-05
92	0x382ded11	4.14672e-05
93	0x382ee3c3	4.1696952e-05
94	0x38305ab7	4.2046155e-05
95	0x381fe13b	3.8118316e-05
96	0x38428731	4.637911e-05
97	0x3825909a	3.9473736e-05
98	0x3824a74e	3.925646e-05
99	0x382b38b4	4.0822386e-05
100	0x380d6a22	3.3715864e-05
101	0x381ebee3	3.7847913e-05
102	0x383a7e28	4.4463348e-05
103	0x3822d04b	3.8817798e-05
104	0x382bc6dc	4.095478e-05
105	0x382c7a41	4.1121853e-05
106	0x3838c47e	4.4052016e-05
107	0x384a287c	4.8198257e-05
108	0x381eee06	3.7891812e-05
109	0x38376f0d	4.3734024e-05
110	0x383441c6	4.29766e-05
111	0x3827684e	3.9913044e-05
112	0x38254366	3.9401835e-05
113	0x38416050	4.6104484e-05
114	0x382906cc	4.029907e-05
115	0x3822140d	3.8642484e-05
116	0x381e31fb	3.7716683e-05
117	0x3837c103	4.3810356e-05
118	0x38203d6f	3.8204187e-05
119	0x381de76c	3.7647245e-05
120	0x38277149	3.9921408e-05
121	0x383521a2	4.3185086e-05
122	0x38247991	3.9213865e-05
123	0x381d2813	3.746904e-05
124	0x3825c195	3.9519353e-05
125	0x383c3d02	4.487951e-05
126	0x383390b2	4.2811684e-05
127	0x3845d905	4.7170575e-05

onnx::DequantizeLinear_349 i1 [128, 2048]
0	0x3d	61
1	0x27	39
2	0xd4	-44
3	0xc3	-61
4	0x07	7
5	0x5b	91
6	0xbf	-65
7	0xf9	-7
8	0xc2	-62
9	0x2b	43
10	0x0b	11
11	0x14	20
12	0x50	80
13	0x15	21
14	0xf1	-15
15	0x57	87
16	0xdd	-35
17	0x41	65
18	0x2f	47
19	0xce	-50
20	0x41	65
21	0x2a	42
22	0xee	-18
23	0xf9	-7
24	0xb8	-72
25	0xcd	-51
26	0x93	-109
27	0x52	82
28	0x41	65
29	0xc7	-57
30	0xeb	-21
31	0x03	3
32	0xec	-20
33	0x45	69
34	0xf1	-15
35	0xd3	-45
36	0xc3	-61
37	0x05	5
38	0xc8	-56
39	0x3e	62
40	0xd6	-42
41	0x3a	58
42	0x33	51
43	0x24	36
44	0x0a	10
45	0x4e	78
46	0x32	50
47	0x14	20
48	0x03	3
49	0xb6	-74
50	0x3f	63
51	0xe7	-25
52	0xe5	-27
53	0x3b	59
54	0x3a	58
55	0x1f	31
56	0x31	49
57	0x38	56
58	0x9f	-97
59	0x06	6
60	0x35	53
61	0xb4	-76
62	0xd1	-47
63	0xfa	-6
64	0x06	6
65	0xe1	-31
66	0x4e	78
67	0x50	80
68	0x00	0
69	0x31	49
70	0x46	70
71	0x0e	14
72	0x51	81
73	0xc1	-63
74	0xca	-54
75	0x32	50
76	0xcf	-49
77	0xfe	-2
78	0xc7	-57
79	0xd0	-48
80	0x08	8
81	0x5f	95
82	0xbe	-66
83	0xe8	-24
84	0x35	53
85	0x4a	74
86	0xf8	-8
87	0xe3	-29
88	0xe9	-23
89	0x1d	29
90	0xe6	-26
91	0xf0	-16
92	0xcc	-52
93	0x43	67
94	0xdc	-36
95	0x21	33
96	0x07	7
97	0x16	22
98	0x13	19
99	0xb6	-74
100	0xdc	-36
101	0x1a	26
102	0xbf	-65
103	0xbb	-69
104	0x51	81
105	0x20	32
106	0xd1	-47
107	0xe1	-31
108	0xca	-54
109	0x29	41
110	0x20	32
111	0xf3	-13
112	0x2a	42
113	0x06	6
114	0x1f	31
115	0x15	21
116	0xd2	-46
117	0xdb	-37
118	0xf5	-11
119	0x58	88
120	0xe5	-27
121	0x40	64
122	0xc2	-62
123	0xaa	-86
124	0xca	-54
125	0xba	-70
126	0x04	4
127	0xef	-17
128	0xbf	-65
129	0x1d	29
130	0x28	40
131	0xe8	-24
132	0xf8	-8
133	0xe2	-30
134	0xc1	-63
135	0xbb	-69
136	0x23	35
137	0xbf	-65
138	0x4c	76
139	0x37	55
140	0x43	67
141	0xc4	-60
142	0x43	67
143	0x2f	47
144	0xdd	-35
145	0xf4	-12
146	0x0e	14
147	0xfb	-5
148	0x11	17
149	0xd9	-39
150	0x0b	11
151	0x36	54
152	0x94	-108
153	0x30	48
154	0xd4	-44
155	0x2d	45
156	0xc7	-57
157	0x01	1
158	0xa3	-93
159	0xfc	-4
160	0xeb	-21
161	0x15	21
162	0x2a	42
163	0xcc	-52
164	0x28	40
165	0xc4	-60
166	0xec	-20
167	0x07	7
168	0xbb	-69
169	0x2f	47
170	0xc5	-59
171	0xea	-22
172	0x1f	31
173	0x9a	-102
174	0xb7	-73
175	0x39	57
176	0x48	72
177	0x1d	29
178	0x0d	13
179	0xf3	-13
180	0xd6	-42
181	0xfc	-4
182	0xfa	-6
183	0xd9	-39
184	0x5b	91
185	0xd5	-43
186	0x08	8
187	0x3a	58
188	0x21	33
189	0xa4	-92
190	0x0a	10
191	0x3c	60
192	0xce	-50
193	0x2d	45
194	0xd2	-46
195	0x26	38
196	0xef	-17
197	0x48	72
198	0xb9	-71
199	0xf0	-16
200	0xbe	-66
201	0xea	-22
202	0x22	34
203	0xf1	-15
204	0x21	33
205	0xfe	-2
206	0x2a	42
207	0x3f	63
208	0xdb	-37
209	0xe7	-25
210	0xd0	-48
211	0x0b	11
212	0xcb	-53
213	0x06	6
214	0xff	-1
215	0x18	24
216	0xbf	-65
217	0x23	35
218	0x2e	46
219	0x57	87
220	0x26	38
221	0x6f	111
222	0x02	2
223	0x0a	10
224	0x43	67
225	0x3f	63
226	0x5c	92
227	0x26	38
228	0x22	34
229	0x25	37
230	0xee	-18
231	0xe1	-31
232	0x9f	-97
233	0x54	84
234	0x47	71
235	0x02	2
236	0x2a	42
237	0xec	-20
238	0xea	-22
239	0x33	51
240	0x26	38
241	0x3a	58
242	0x2d	45
243	0xe8	-24
244	0x17	23
245	0xb6	-74
246	0xc0	-64
247	0x47	71
248	0x2b	43
249	0x1e	30
250	0xe2	-30
251	0x35	53
252	0x31	49
253	0xf8	-8
254	0xe4	-28
255	0x55	85
